{"format": "graph-model", "generatedBy": "2.4.1", "convertedBy": "TensorFlow.js Converter v3.1.0", "signature": {"inputs": {"x:0": {"name": "x:0", "dtype": "DT_UINT8", "tensorShape": {"dim": [{"size": "-1"}, {"size": "256"}]}}}, "outputs": {"Identity:0": {"name": "Identity:0", "dtype": "DT_FLOAT", "tensorShape": {"dim": [{"size": "-1"}, {"size": "256"}, {"size": "64"}]}}}}, "modelTopology": {"node": [{"name": "StatefulPartitionedCall/sequential_4/transformer_block_2/layer_normalization_5/batchnorm/ReadVariableOp", "op": "Const", "attr": {"value": {"tensor": {"dtype": "DT_FLOAT", "tensorShape": {"dim": [{"size": "64"}]}}}, "dtype": {"type": "DT_FLOAT"}}}, {"name": "StatefulPartitionedCall/sequential_4/transformer_block_2/sequential_3/dense_20/Tensordot/Const", "op": "Const", "attr": {"value": {"tensor": {"dtype": "DT_INT32", "tensorShape": {"dim": [{"size": "1"}]}}}, "dtype": {"type": "DT_INT32"}}}, {"name": "StatefulPartitionedCall/sequential_4/transformer_block_2/sequential_3/dense_20/Tensordot/axes", "op": "Const", "attr": {"value": {"tensor": {"dtype": "DT_INT32", "tensorShape": {"dim": [{"size": "1"}]}}}, "dtype": {"type": "DT_INT32"}}}, {"name": "StatefulPartitionedCall/sequential_4/transformer_block_2/sequential_3/dense_20/Tensordot/GatherV2_1/axis", "op": "Const", "attr": {"value": {"tensor": {"dtype": "DT_INT32", "tensorShape": {}}}, "dtype": {"type": "DT_INT32"}}}, {"name": "StatefulPartitionedCall/sequential_4/transformer_block_2/sequential_3/dense_20/Tensordot/Const_1", "op": "Const", "attr": {"dtype": {"type": "DT_INT32"}, "value": {"tensor": {"dtype": "DT_INT32", "tensorShape": {"dim": [{"size": "1"}]}}}}}, {"name": "StatefulPartitionedCall/sequential_4/transformer_block_2/sequential_3/dense_20/Tensordot/ReadVariableOp", "op": "Const", "attr": {"value": {"tensor": {"dtype": "DT_FLOAT", "tensorShape": {"dim": [{"size": "64"}, {"size": "64"}]}}}, "dtype": {"type": "DT_FLOAT"}}}, {"name": "StatefulPartitionedCall/sequential_4/transformer_block_2/sequential_3/dense_19/Tensordot/Const", "op": "Const", "attr": {"value": {"tensor": {"dtype": "DT_INT32", "tensorShape": {"dim": [{"size": "1"}]}}}, "dtype": {"type": "DT_INT32"}}}, {"name": "StatefulPartitionedCall/sequential_4/transformer_block_2/sequential_3/dense_19/Tensordot/axes", "op": "Const", "attr": {"value": {"tensor": {"dtype": "DT_INT32", "tensorShape": {"dim": [{"size": "1"}]}}}, "dtype": {"type": "DT_INT32"}}}, {"name": "StatefulPartitionedCall/sequential_4/transformer_block_2/sequential_3/dense_19/Tensordot/GatherV2_1/axis", "op": "Const", "attr": {"value": {"tensor": {"dtype": "DT_INT32", "tensorShape": {}}}, "dtype": {"type": "DT_INT32"}}}, {"name": "StatefulPartitionedCall/sequential_4/transformer_block_2/sequential_3/dense_19/Tensordot/Const_1", "op": "Const", "attr": {"value": {"tensor": {"dtype": "DT_INT32", "tensorShape": {"dim": [{"size": "1"}]}}}, "dtype": {"type": "DT_INT32"}}}, {"name": "StatefulPartitionedCall/sequential_4/transformer_block_2/sequential_3/dense_19/Tensordot/ReadVariableOp", "op": "Const", "attr": {"value": {"tensor": {"dtype": "DT_FLOAT", "tensorShape": {"dim": [{"size": "64"}, {"size": "64"}]}}}, "dtype": {"type": "DT_FLOAT"}}}, {"name": "StatefulPartitionedCall/sequential_4/transformer_block_2/layer_normalization_4/batchnorm/ReadVariableOp", "op": "Const", "attr": {"value": {"tensor": {"dtype": "DT_FLOAT", "tensorShape": {"dim": [{"size": "64"}]}}}, "dtype": {"type": "DT_FLOAT"}}}, {"name": "StatefulPartitionedCall/sequential_4/transformer_block_2/dense_18/Tensordot/Const", "op": "Const", "attr": {"dtype": {"type": "DT_INT32"}, "value": {"tensor": {"dtype": "DT_INT32", "tensorShape": {"dim": [{"size": "1"}]}}}}}, {"name": "StatefulPartitionedCall/sequential_4/transformer_block_2/dense_18/Tensordot/axes", "op": "Const", "attr": {"value": {"tensor": {"dtype": "DT_INT32", "tensorShape": {"dim": [{"size": "1"}]}}}, "dtype": {"type": "DT_INT32"}}}, {"name": "StatefulPartitionedCall/sequential_4/transformer_block_2/dense_18/Tensordot/GatherV2_1/axis", "op": "Const", "attr": {"value": {"tensor": {"dtype": "DT_INT32", "tensorShape": {}}}, "dtype": {"type": "DT_INT32"}}}, {"name": "StatefulPartitionedCall/sequential_4/transformer_block_2/dense_18/Tensordot/Const_1", "op": "Const", "attr": {"value": {"tensor": {"dtype": "DT_INT32", "tensorShape": {"dim": [{"size": "1"}]}}}, "dtype": {"type": "DT_INT32"}}}, {"name": "StatefulPartitionedCall/sequential_4/transformer_block_2/dense_18/Tensordot/ReadVariableOp", "op": "Const", "attr": {"value": {"tensor": {"dtype": "DT_FLOAT", "tensorShape": {"dim": [{"size": "512"}, {"size": "64"}]}}}, "dtype": {"type": "DT_FLOAT"}}}, {"name": "StatefulPartitionedCall/sequential_4/transformer_block_2/dense_15/Tensordot/free", "op": "Const", "attr": {"value": {"tensor": {"dtype": "DT_INT32", "tensorShape": {"dim": [{"size": "2"}]}}}, "dtype": {"type": "DT_INT32"}}}, {"name": "StatefulPartitionedCall/sequential_4/transformer_block_2/dense_15/Tensordot/GatherV2/axis", "op": "Const", "attr": {"value": {"tensor": {"dtype": "DT_INT32", "tensorShape": {}}}, "dtype": {"type": "DT_INT32"}}}, {"name": "StatefulPartitionedCall/sequential_4/transformer_block_2/dense_15/Tensordot/Const", "op": "Const", "attr": {"dtype": {"type": "DT_INT32"}, "value": {"tensor": {"dtype": "DT_INT32", "tensorShape": {"dim": [{"size": "1"}]}}}}}, {"name": "StatefulPartitionedCall/sequential_4/transformer_block_2/dense_15/Tensordot/axes", "op": "Const", "attr": {"value": {"tensor": {"dtype": "DT_INT32", "tensorShape": {"dim": [{"size": "1"}]}}}, "dtype": {"type": "DT_INT32"}}}, {"name": "StatefulPartitionedCall/sequential_4/transformer_block_2/dense_15/Tensordot/GatherV2_1/axis", "op": "Const", "attr": {"value": {"tensor": {"dtype": "DT_INT32", "tensorShape": {}}}, "dtype": {"type": "DT_INT32"}}}, {"name": "StatefulPartitionedCall/sequential_4/transformer_block_2/dense_15/Tensordot/Const_1", "op": "Const", "attr": {"value": {"tensor": {"dtype": "DT_INT32", "tensorShape": {"dim": [{"size": "1"}]}}}, "dtype": {"type": "DT_INT32"}}}, {"name": "StatefulPartitionedCall/sequential_4/transformer_block_2/dense_15/Tensordot/ReadVariableOp", "op": "Const", "attr": {"value": {"tensor": {"dtype": "DT_FLOAT", "tensorShape": {"dim": [{"size": "64"}, {"size": "512"}]}}}, "dtype": {"type": "DT_FLOAT"}}}, {"name": "StatefulPartitionedCall/sequential_4/transformer_block_2/Reshape/shape", "op": "Const", "attr": {"value": {"tensor": {"dtype": "DT_INT32", "tensorShape": {"dim": [{"size": "4"}]}}}, "dtype": {"type": "DT_INT32"}}}, {"name": "StatefulPartitionedCall/sequential_4/transformer_block_2/transpose/perm", "op": "Const", "attr": {"dtype": {"type": "DT_INT32"}, "value": {"tensor": {"dtype": "DT_INT32", "tensorShape": {"dim": [{"size": "4"}]}}}}}, {"name": "StatefulPartitionedCall/sequential_4/transformer_block_2/dense_17/Tensordot/free", "op": "Const", "attr": {"dtype": {"type": "DT_INT32"}, "value": {"tensor": {"dtype": "DT_INT32", "tensorShape": {"dim": [{"size": "2"}]}}}}}, {"name": "StatefulPartitionedCall/sequential_4/transformer_block_2/dense_17/Tensordot/GatherV2/axis", "op": "Const", "attr": {"value": {"tensor": {"dtype": "DT_INT32", "tensorShape": {}}}, "dtype": {"type": "DT_INT32"}}}, {"name": "StatefulPartitionedCall/sequential_4/transformer_block_2/dense_17/Tensordot/Const", "op": "Const", "attr": {"value": {"tensor": {"dtype": "DT_INT32", "tensorShape": {"dim": [{"size": "1"}]}}}, "dtype": {"type": "DT_INT32"}}}, {"name": "StatefulPartitionedCall/sequential_4/transformer_block_2/dense_17/Tensordot/axes", "op": "Const", "attr": {"value": {"tensor": {"dtype": "DT_INT32", "tensorShape": {"dim": [{"size": "1"}]}}}, "dtype": {"type": "DT_INT32"}}}, {"name": "StatefulPartitionedCall/sequential_4/transformer_block_2/dense_17/Tensordot/GatherV2_1/axis", "op": "Const", "attr": {"value": {"tensor": {"dtype": "DT_INT32", "tensorShape": {}}}, "dtype": {"type": "DT_INT32"}}}, {"name": "StatefulPartitionedCall/sequential_4/transformer_block_2/dense_17/Tensordot/Const_1", "op": "Const", "attr": {"value": {"tensor": {"dtype": "DT_INT32", "tensorShape": {"dim": [{"size": "1"}]}}}, "dtype": {"type": "DT_INT32"}}}, {"name": "StatefulPartitionedCall/sequential_4/transformer_block_2/dense_17/Tensordot/ReadVariableOp", "op": "Const", "attr": {"value": {"tensor": {"dtype": "DT_FLOAT", "tensorShape": {"dim": [{"size": "64"}, {"size": "512"}]}}}, "dtype": {"type": "DT_FLOAT"}}}, {"name": "StatefulPartitionedCall/sequential_4/transformer_block_2/Reshape_2/shape", "op": "Const", "attr": {"value": {"tensor": {"dtype": "DT_INT32", "tensorShape": {"dim": [{"size": "4"}]}}}, "dtype": {"type": "DT_INT32"}}}, {"name": "StatefulPartitionedCall/sequential_4/transformer_block_2/transpose_1/perm", "op": "Const", "attr": {"value": {"tensor": {"dtype": "DT_INT32", "tensorShape": {"dim": [{"size": "4"}]}}}, "dtype": {"type": "DT_INT32"}}}, {"name": "ConstantFolding/StatefulPartitionedCall/sequential_4/transformer_block_2/truediv_recip", "op": "Const", "attr": {"value": {"tensor": {"dtype": "DT_FLOAT", "tensorShape": {}}}, "dtype": {"type": "DT_FLOAT"}}}, {"name": "StatefulPartitionedCall/sequential_4/transformer_block_2/dense_16/Tensordot/free", "op": "Const", "attr": {"value": {"tensor": {"dtype": "DT_INT32", "tensorShape": {"dim": [{"size": "2"}]}}}, "dtype": {"type": "DT_INT32"}}}, {"name": "StatefulPartitionedCall/sequential_4/transformer_block_2/dense_16/Tensordot/GatherV2/axis", "op": "Const", "attr": {"value": {"tensor": {"dtype": "DT_INT32", "tensorShape": {}}}, "dtype": {"type": "DT_INT32"}}}, {"name": "StatefulPartitionedCall/sequential_4/transformer_block_2/dense_16/Tensordot/Const", "op": "Const", "attr": {"value": {"tensor": {"dtype": "DT_INT32", "tensorShape": {"dim": [{"size": "1"}]}}}, "dtype": {"type": "DT_INT32"}}}, {"name": "StatefulPartitionedCall/sequential_4/transformer_block_1/layer_normalization_3/batchnorm/ReadVariableOp", "op": "Const", "attr": {"dtype": {"type": "DT_FLOAT"}, "value": {"tensor": {"dtype": "DT_FLOAT", "tensorShape": {"dim": [{"size": "64"}]}}}}}, {"name": "StatefulPartitionedCall/sequential_4/transformer_block_1/sequential_2/dense_14/Tensordot/Const", "op": "Const", "attr": {"value": {"tensor": {"dtype": "DT_INT32", "tensorShape": {"dim": [{"size": "1"}]}}}, "dtype": {"type": "DT_INT32"}}}, {"name": "StatefulPartitionedCall/sequential_4/transformer_block_1/sequential_2/dense_14/Tensordot/axes", "op": "Const", "attr": {"dtype": {"type": "DT_INT32"}, "value": {"tensor": {"dtype": "DT_INT32", "tensorShape": {"dim": [{"size": "1"}]}}}}}, {"name": "StatefulPartitionedCall/sequential_4/transformer_block_1/sequential_2/dense_14/Tensordot/GatherV2_1/axis", "op": "Const", "attr": {"value": {"tensor": {"dtype": "DT_INT32", "tensorShape": {}}}, "dtype": {"type": "DT_INT32"}}}, {"name": "StatefulPartitionedCall/sequential_4/transformer_block_1/sequential_2/dense_14/Tensordot/Const_1", "op": "Const", "attr": {"value": {"tensor": {"dtype": "DT_INT32", "tensorShape": {"dim": [{"size": "1"}]}}}, "dtype": {"type": "DT_INT32"}}}, {"name": "StatefulPartitionedCall/sequential_4/transformer_block_1/sequential_2/dense_14/Tensordot/ReadVariableOp", "op": "Const", "attr": {"value": {"tensor": {"dtype": "DT_FLOAT", "tensorShape": {"dim": [{"size": "64"}, {"size": "64"}]}}}, "dtype": {"type": "DT_FLOAT"}}}, {"name": "StatefulPartitionedCall/sequential_4/transformer_block_1/sequential_2/dense_13/Tensordot/Const", "op": "Const", "attr": {"dtype": {"type": "DT_INT32"}, "value": {"tensor": {"dtype": "DT_INT32", "tensorShape": {"dim": [{"size": "1"}]}}}}}, {"name": "StatefulPartitionedCall/sequential_4/transformer_block_1/sequential_2/dense_13/Tensordot/axes", "op": "Const", "attr": {"value": {"tensor": {"dtype": "DT_INT32", "tensorShape": {"dim": [{"size": "1"}]}}}, "dtype": {"type": "DT_INT32"}}}, {"name": "StatefulPartitionedCall/sequential_4/transformer_block_1/sequential_2/dense_13/Tensordot/GatherV2_1/axis", "op": "Const", "attr": {"value": {"tensor": {"dtype": "DT_INT32", "tensorShape": {}}}, "dtype": {"type": "DT_INT32"}}}, {"name": "StatefulPartitionedCall/sequential_4/transformer_block_1/sequential_2/dense_13/Tensordot/Const_1", "op": "Const", "attr": {"value": {"tensor": {"dtype": "DT_INT32", "tensorShape": {"dim": [{"size": "1"}]}}}, "dtype": {"type": "DT_INT32"}}}, {"name": "StatefulPartitionedCall/sequential_4/transformer_block_1/sequential_2/dense_13/Tensordot/ReadVariableOp", "op": "Const", "attr": {"value": {"tensor": {"dtype": "DT_FLOAT", "tensorShape": {"dim": [{"size": "64"}, {"size": "64"}]}}}, "dtype": {"type": "DT_FLOAT"}}}, {"name": "StatefulPartitionedCall/sequential_4/transformer_block_1/layer_normalization_2/batchnorm/ReadVariableOp", "op": "Const", "attr": {"value": {"tensor": {"dtype": "DT_FLOAT", "tensorShape": {"dim": [{"size": "64"}]}}}, "dtype": {"type": "DT_FLOAT"}}}, {"name": "StatefulPartitionedCall/sequential_4/transformer_block_1/dense_12/Tensordot/Const", "op": "Const", "attr": {"dtype": {"type": "DT_INT32"}, "value": {"tensor": {"dtype": "DT_INT32", "tensorShape": {"dim": [{"size": "1"}]}}}}}, {"name": "StatefulPartitionedCall/sequential_4/transformer_block_1/dense_12/Tensordot/axes", "op": "Const", "attr": {"value": {"tensor": {"dtype": "DT_INT32", "tensorShape": {"dim": [{"size": "1"}]}}}, "dtype": {"type": "DT_INT32"}}}, {"name": "StatefulPartitionedCall/sequential_4/transformer_block_1/dense_12/Tensordot/GatherV2_1/axis", "op": "Const", "attr": {"value": {"tensor": {"dtype": "DT_INT32", "tensorShape": {}}}, "dtype": {"type": "DT_INT32"}}}, {"name": "StatefulPartitionedCall/sequential_4/transformer_block_1/dense_12/Tensordot/Const_1", "op": "Const", "attr": {"dtype": {"type": "DT_INT32"}, "value": {"tensor": {"dtype": "DT_INT32", "tensorShape": {"dim": [{"size": "1"}]}}}}}, {"name": "StatefulPartitionedCall/sequential_4/transformer_block_1/dense_12/Tensordot/ReadVariableOp", "op": "Const", "attr": {"value": {"tensor": {"dtype": "DT_FLOAT", "tensorShape": {"dim": [{"size": "512"}, {"size": "64"}]}}}, "dtype": {"type": "DT_FLOAT"}}}, {"name": "StatefulPartitionedCall/sequential_4/transformer_block_1/dense_9/Tensordot/free", "op": "Const", "attr": {"value": {"tensor": {"dtype": "DT_INT32", "tensorShape": {"dim": [{"size": "2"}]}}}, "dtype": {"type": "DT_INT32"}}}, {"name": "StatefulPartitionedCall/sequential_4/transformer_block_1/dense_9/Tensordot/GatherV2/axis", "op": "Const", "attr": {"value": {"tensor": {"dtype": "DT_INT32", "tensorShape": {}}}, "dtype": {"type": "DT_INT32"}}}, {"name": "StatefulPartitionedCall/sequential_4/transformer_block_1/dense_9/Tensordot/Const", "op": "Const", "attr": {"value": {"tensor": {"dtype": "DT_INT32", "tensorShape": {"dim": [{"size": "1"}]}}}, "dtype": {"type": "DT_INT32"}}}, {"name": "StatefulPartitionedCall/sequential_4/transformer_block_1/dense_9/Tensordot/axes", "op": "Const", "attr": {"value": {"tensor": {"dtype": "DT_INT32", "tensorShape": {"dim": [{"size": "1"}]}}}, "dtype": {"type": "DT_INT32"}}}, {"name": "StatefulPartitionedCall/sequential_4/transformer_block_1/dense_9/Tensordot/GatherV2_1/axis", "op": "Const", "attr": {"value": {"tensor": {"dtype": "DT_INT32", "tensorShape": {}}}, "dtype": {"type": "DT_INT32"}}}, {"name": "StatefulPartitionedCall/sequential_4/transformer_block_1/dense_9/Tensordot/Const_1", "op": "Const", "attr": {"dtype": {"type": "DT_INT32"}, "value": {"tensor": {"dtype": "DT_INT32", "tensorShape": {"dim": [{"size": "1"}]}}}}}, {"name": "StatefulPartitionedCall/sequential_4/transformer_block_1/dense_9/Tensordot/ReadVariableOp", "op": "Const", "attr": {"value": {"tensor": {"dtype": "DT_FLOAT", "tensorShape": {"dim": [{"size": "64"}, {"size": "512"}]}}}, "dtype": {"type": "DT_FLOAT"}}}, {"name": "StatefulPartitionedCall/sequential_4/transformer_block_1/Reshape/shape", "op": "Const", "attr": {"value": {"tensor": {"dtype": "DT_INT32", "tensorShape": {"dim": [{"size": "4"}]}}}, "dtype": {"type": "DT_INT32"}}}, {"name": "StatefulPartitionedCall/sequential_4/transformer_block_1/transpose/perm", "op": "Const", "attr": {"value": {"tensor": {"dtype": "DT_INT32", "tensorShape": {"dim": [{"size": "4"}]}}}, "dtype": {"type": "DT_INT32"}}}, {"name": "StatefulPartitionedCall/sequential_4/transformer_block_1/dense_11/Tensordot/free", "op": "Const", "attr": {"value": {"tensor": {"dtype": "DT_INT32", "tensorShape": {"dim": [{"size": "2"}]}}}, "dtype": {"type": "DT_INT32"}}}, {"name": "StatefulPartitionedCall/sequential_4/transformer_block_1/dense_11/Tensordot/GatherV2/axis", "op": "Const", "attr": {"value": {"tensor": {"dtype": "DT_INT32", "tensorShape": {}}}, "dtype": {"type": "DT_INT32"}}}, {"name": "StatefulPartitionedCall/sequential_4/transformer_block_1/dense_11/Tensordot/Const", "op": "Const", "attr": {"value": {"tensor": {"dtype": "DT_INT32", "tensorShape": {"dim": [{"size": "1"}]}}}, "dtype": {"type": "DT_INT32"}}}, {"name": "StatefulPartitionedCall/sequential_4/transformer_block_1/dense_11/Tensordot/axes", "op": "Const", "attr": {"value": {"tensor": {"dtype": "DT_INT32", "tensorShape": {"dim": [{"size": "1"}]}}}, "dtype": {"type": "DT_INT32"}}}, {"name": "StatefulPartitionedCall/sequential_4/transformer_block_1/dense_11/Tensordot/GatherV2_1/axis", "op": "Const", "attr": {"value": {"tensor": {"dtype": "DT_INT32", "tensorShape": {}}}, "dtype": {"type": "DT_INT32"}}}, {"name": "StatefulPartitionedCall/sequential_4/transformer_block_1/dense_11/Tensordot/Const_1", "op": "Const", "attr": {"value": {"tensor": {"dtype": "DT_INT32", "tensorShape": {"dim": [{"size": "1"}]}}}, "dtype": {"type": "DT_INT32"}}}, {"name": "StatefulPartitionedCall/sequential_4/transformer_block_1/dense_11/Tensordot/ReadVariableOp", "op": "Const", "attr": {"value": {"tensor": {"dtype": "DT_FLOAT", "tensorShape": {"dim": [{"size": "64"}, {"size": "512"}]}}}, "dtype": {"type": "DT_FLOAT"}}}, {"name": "StatefulPartitionedCall/sequential_4/transformer_block_1/Reshape_2/shape", "op": "Const", "attr": {"value": {"tensor": {"dtype": "DT_INT32", "tensorShape": {"dim": [{"size": "4"}]}}}, "dtype": {"type": "DT_INT32"}}}, {"name": "StatefulPartitionedCall/sequential_4/transformer_block_1/transpose_1/perm", "op": "Const", "attr": {"value": {"tensor": {"dtype": "DT_INT32", "tensorShape": {"dim": [{"size": "4"}]}}}, "dtype": {"type": "DT_INT32"}}}, {"name": "ConstantFolding/StatefulPartitionedCall/sequential_4/transformer_block_1/truediv_recip", "op": "Const", "attr": {"value": {"tensor": {"dtype": "DT_FLOAT", "tensorShape": {}}}, "dtype": {"type": "DT_FLOAT"}}}, {"name": "StatefulPartitionedCall/sequential_4/transformer_block_1/dense_10/Tensordot/free", "op": "Const", "attr": {"value": {"tensor": {"dtype": "DT_INT32", "tensorShape": {"dim": [{"size": "2"}]}}}, "dtype": {"type": "DT_INT32"}}}, {"name": "StatefulPartitionedCall/sequential_4/transformer_block_1/dense_10/Tensordot/GatherV2/axis", "op": "Const", "attr": {"value": {"tensor": {"dtype": "DT_INT32", "tensorShape": {}}}, "dtype": {"type": "DT_INT32"}}}, {"name": "StatefulPartitionedCall/sequential_4/transformer_block_1/dense_10/Tensordot/Const", "op": "Const", "attr": {"value": {"tensor": {"dtype": "DT_INT32", "tensorShape": {"dim": [{"size": "1"}]}}}, "dtype": {"type": "DT_INT32"}}}, {"name": "StatefulPartitionedCall/sequential_4/transformer_block/layer_normalization_1/batchnorm/ReadVariableOp", "op": "Const", "attr": {"value": {"tensor": {"dtype": "DT_FLOAT", "tensorShape": {"dim": [{"size": "64"}]}}}, "dtype": {"type": "DT_FLOAT"}}}, {"name": "StatefulPartitionedCall/sequential_4/transformer_block/sequential_1/dense_8/Tensordot/Const", "op": "Const", "attr": {"dtype": {"type": "DT_INT32"}, "value": {"tensor": {"dtype": "DT_INT32", "tensorShape": {"dim": [{"size": "1"}]}}}}}, {"name": "StatefulPartitionedCall/sequential_4/transformer_block/sequential_1/dense_8/Tensordot/axes", "op": "Const", "attr": {"value": {"tensor": {"dtype": "DT_INT32", "tensorShape": {"dim": [{"size": "1"}]}}}, "dtype": {"type": "DT_INT32"}}}, {"name": "StatefulPartitionedCall/sequential_4/transformer_block/sequential_1/dense_8/Tensordot/GatherV2_1/axis", "op": "Const", "attr": {"value": {"tensor": {"dtype": "DT_INT32", "tensorShape": {}}}, "dtype": {"type": "DT_INT32"}}}, {"name": "StatefulPartitionedCall/sequential_4/transformer_block/sequential_1/dense_8/Tensordot/Const_1", "op": "Const", "attr": {"value": {"tensor": {"dtype": "DT_INT32", "tensorShape": {"dim": [{"size": "1"}]}}}, "dtype": {"type": "DT_INT32"}}}, {"name": "StatefulPartitionedCall/sequential_4/transformer_block/sequential_1/dense_8/Tensordot/ReadVariableOp", "op": "Const", "attr": {"value": {"tensor": {"dtype": "DT_FLOAT", "tensorShape": {"dim": [{"size": "64"}, {"size": "64"}]}}}, "dtype": {"type": "DT_FLOAT"}}}, {"name": "StatefulPartitionedCall/sequential_4/transformer_block/sequential_1/dense_7/Tensordot/Const", "op": "Const", "attr": {"value": {"tensor": {"dtype": "DT_INT32", "tensorShape": {"dim": [{"size": "1"}]}}}, "dtype": {"type": "DT_INT32"}}}, {"name": "StatefulPartitionedCall/sequential_4/transformer_block/sequential_1/dense_7/Tensordot/axes", "op": "Const", "attr": {"value": {"tensor": {"dtype": "DT_INT32", "tensorShape": {"dim": [{"size": "1"}]}}}, "dtype": {"type": "DT_INT32"}}}, {"name": "StatefulPartitionedCall/sequential_4/transformer_block/sequential_1/dense_7/Tensordot/GatherV2_1/axis", "op": "Const", "attr": {"value": {"tensor": {"dtype": "DT_INT32", "tensorShape": {}}}, "dtype": {"type": "DT_INT32"}}}, {"name": "StatefulPartitionedCall/sequential_4/transformer_block/sequential_1/dense_7/Tensordot/Const_1", "op": "Const", "attr": {"value": {"tensor": {"dtype": "DT_INT32", "tensorShape": {"dim": [{"size": "1"}]}}}, "dtype": {"type": "DT_INT32"}}}, {"name": "StatefulPartitionedCall/sequential_4/transformer_block/sequential_1/dense_7/Tensordot/ReadVariableOp", "op": "Const", "attr": {"value": {"tensor": {"dtype": "DT_FLOAT", "tensorShape": {"dim": [{"size": "64"}, {"size": "64"}]}}}, "dtype": {"type": "DT_FLOAT"}}}, {"name": "StatefulPartitionedCall/sequential_4/transformer_block/layer_normalization/batchnorm/ReadVariableOp", "op": "Const", "attr": {"value": {"tensor": {"dtype": "DT_FLOAT", "tensorShape": {"dim": [{"size": "64"}]}}}, "dtype": {"type": "DT_FLOAT"}}}, {"name": "StatefulPartitionedCall/sequential_4/transformer_block/dense_6/Tensordot/Const", "op": "Const", "attr": {"dtype": {"type": "DT_INT32"}, "value": {"tensor": {"dtype": "DT_INT32", "tensorShape": {"dim": [{"size": "1"}]}}}}}, {"name": "StatefulPartitionedCall/sequential_4/transformer_block/dense_6/Tensordot/axes", "op": "Const", "attr": {"value": {"tensor": {"dtype": "DT_INT32", "tensorShape": {"dim": [{"size": "1"}]}}}, "dtype": {"type": "DT_INT32"}}}, {"name": "StatefulPartitionedCall/sequential_4/transformer_block/dense_6/Tensordot/GatherV2_1/axis", "op": "Const", "attr": {"value": {"tensor": {"dtype": "DT_INT32", "tensorShape": {}}}, "dtype": {"type": "DT_INT32"}}}, {"name": "StatefulPartitionedCall/sequential_4/transformer_block/dense_6/Tensordot/Const_1", "op": "Const", "attr": {"value": {"tensor": {"dtype": "DT_INT32", "tensorShape": {"dim": [{"size": "1"}]}}}, "dtype": {"type": "DT_INT32"}}}, {"name": "StatefulPartitionedCall/sequential_4/transformer_block/dense_6/Tensordot/ReadVariableOp", "op": "Const", "attr": {"value": {"tensor": {"dtype": "DT_FLOAT", "tensorShape": {"dim": [{"size": "512"}, {"size": "64"}]}}}, "dtype": {"type": "DT_FLOAT"}}}, {"name": "StatefulPartitionedCall/sequential_4/transformer_block/dense_3/Tensordot/free", "op": "Const", "attr": {"value": {"tensor": {"dtype": "DT_INT32", "tensorShape": {"dim": [{"size": "2"}]}}}, "dtype": {"type": "DT_INT32"}}}, {"name": "StatefulPartitionedCall/sequential_4/transformer_block/dense_3/Tensordot/GatherV2/axis", "op": "Const", "attr": {"value": {"tensor": {"dtype": "DT_INT32", "tensorShape": {}}}, "dtype": {"type": "DT_INT32"}}}, {"name": "StatefulPartitionedCall/sequential_4/transformer_block/dense_3/Tensordot/Const", "op": "Const", "attr": {"value": {"tensor": {"dtype": "DT_INT32", "tensorShape": {"dim": [{"size": "1"}]}}}, "dtype": {"type": "DT_INT32"}}}, {"name": "StatefulPartitionedCall/sequential_4/transformer_block/dense_3/Tensordot/axes", "op": "Const", "attr": {"value": {"tensor": {"dtype": "DT_INT32", "tensorShape": {"dim": [{"size": "1"}]}}}, "dtype": {"type": "DT_INT32"}}}, {"name": "StatefulPartitionedCall/sequential_4/transformer_block/dense_3/Tensordot/GatherV2_1/axis", "op": "Const", "attr": {"value": {"tensor": {"dtype": "DT_INT32", "tensorShape": {}}}, "dtype": {"type": "DT_INT32"}}}, {"name": "StatefulPartitionedCall/sequential_4/transformer_block/dense_3/Tensordot/Const_1", "op": "Const", "attr": {"value": {"tensor": {"dtype": "DT_INT32", "tensorShape": {"dim": [{"size": "1"}]}}}, "dtype": {"type": "DT_INT32"}}}, {"name": "StatefulPartitionedCall/sequential_4/transformer_block/dense_3/Tensordot/ReadVariableOp", "op": "Const", "attr": {"value": {"tensor": {"dtype": "DT_FLOAT", "tensorShape": {"dim": [{"size": "64"}, {"size": "512"}]}}}, "dtype": {"type": "DT_FLOAT"}}}, {"name": "StatefulPartitionedCall/sequential_4/transformer_block/Reshape/shape", "op": "Const", "attr": {"value": {"tensor": {"dtype": "DT_INT32", "tensorShape": {"dim": [{"size": "4"}]}}}, "dtype": {"type": "DT_INT32"}}}, {"name": "StatefulPartitionedCall/sequential_4/transformer_block/transpose/perm", "op": "Const", "attr": {"value": {"tensor": {"dtype": "DT_INT32", "tensorShape": {"dim": [{"size": "4"}]}}}, "dtype": {"type": "DT_INT32"}}}, {"name": "StatefulPartitionedCall/sequential_4/transformer_block/dense_5/Tensordot/free", "op": "Const", "attr": {"value": {"tensor": {"dtype": "DT_INT32", "tensorShape": {"dim": [{"size": "2"}]}}}, "dtype": {"type": "DT_INT32"}}}, {"name": "StatefulPartitionedCall/sequential_4/transformer_block/dense_5/Tensordot/GatherV2/axis", "op": "Const", "attr": {"value": {"tensor": {"dtype": "DT_INT32", "tensorShape": {}}}, "dtype": {"type": "DT_INT32"}}}, {"name": "StatefulPartitionedCall/sequential_4/transformer_block/dense_5/Tensordot/Const", "op": "Const", "attr": {"value": {"tensor": {"dtype": "DT_INT32", "tensorShape": {"dim": [{"size": "1"}]}}}, "dtype": {"type": "DT_INT32"}}}, {"name": "StatefulPartitionedCall/sequential_4/transformer_block/dense_5/Tensordot/axes", "op": "Const", "attr": {"value": {"tensor": {"dtype": "DT_INT32", "tensorShape": {"dim": [{"size": "1"}]}}}, "dtype": {"type": "DT_INT32"}}}, {"name": "StatefulPartitionedCall/sequential_4/transformer_block/dense_5/Tensordot/GatherV2_1/axis", "op": "Const", "attr": {"value": {"tensor": {"dtype": "DT_INT32", "tensorShape": {}}}, "dtype": {"type": "DT_INT32"}}}, {"name": "StatefulPartitionedCall/sequential_4/transformer_block/dense_5/Tensordot/Const_1", "op": "Const", "attr": {"value": {"tensor": {"dtype": "DT_INT32", "tensorShape": {"dim": [{"size": "1"}]}}}, "dtype": {"type": "DT_INT32"}}}, {"name": "StatefulPartitionedCall/sequential_4/transformer_block/dense_5/Tensordot/ReadVariableOp", "op": "Const", "attr": {"value": {"tensor": {"dtype": "DT_FLOAT", "tensorShape": {"dim": [{"size": "64"}, {"size": "512"}]}}}, "dtype": {"type": "DT_FLOAT"}}}, {"name": "StatefulPartitionedCall/sequential_4/transformer_block/Reshape_2/shape", "op": "Const", "attr": {"value": {"tensor": {"dtype": "DT_INT32", "tensorShape": {"dim": [{"size": "4"}]}}}, "dtype": {"type": "DT_INT32"}}}, {"name": "StatefulPartitionedCall/sequential_4/transformer_block/transpose_1/perm", "op": "Const", "attr": {"dtype": {"type": "DT_INT32"}, "value": {"tensor": {"dtype": "DT_INT32", "tensorShape": {"dim": [{"size": "4"}]}}}}}, {"name": "ConstantFolding/StatefulPartitionedCall/sequential_4/transformer_block/truediv_recip", "op": "Const", "attr": {"value": {"tensor": {"dtype": "DT_FLOAT", "tensorShape": {}}}, "dtype": {"type": "DT_FLOAT"}}}, {"name": "StatefulPartitionedCall/sequential_4/transformer_block/dense_4/Tensordot/free", "op": "Const", "attr": {"value": {"tensor": {"dtype": "DT_INT32", "tensorShape": {"dim": [{"size": "2"}]}}}, "dtype": {"type": "DT_INT32"}}}, {"name": "StatefulPartitionedCall/sequential_4/transformer_block/dense_4/Tensordot/GatherV2/axis", "op": "Const", "attr": {"dtype": {"type": "DT_INT32"}, "value": {"tensor": {"dtype": "DT_INT32", "tensorShape": {}}}}}, {"name": "StatefulPartitionedCall/sequential_4/transformer_block/dense_4/Tensordot/Const", "op": "Const", "attr": {"dtype": {"type": "DT_INT32"}, "value": {"tensor": {"dtype": "DT_INT32", "tensorShape": {"dim": [{"size": "1"}]}}}}}, {"name": "unknown_0", "op": "Const", "attr": {"value": {"tensor": {"dtype": "DT_FLOAT", "tensorShape": {"dim": [{"size": "255"}, {"size": "64"}]}}}, "dtype": {"type": "DT_FLOAT"}}}, {"name": "StatefulPartitionedCall/sequential_4/token_and_position_embedding/embedding/embedding_lookup/axis", "op": "Const", "attr": {"value": {"tensor": {"dtype": "DT_INT64", "tensorShape": {}}}, "dtype": {"type": "DT_INT64"}}}, {"name": "unknown", "op": "Const", "attr": {"value": {"tensor": {"dtype": "DT_FLOAT", "tensorShape": {"dim": [{"size": "256"}, {"size": "64"}]}}}, "dtype": {"type": "DT_FLOAT"}}}, {"name": "StatefulPartitionedCall/sequential_4/token_and_position_embedding/range/start", "op": "Const", "attr": {"value": {"tensor": {"dtype": "DT_INT32", "tensorShape": {}}}, "dtype": {"type": "DT_INT32"}}}, {"name": "StatefulPartitionedCall/sequential_4/token_and_position_embedding/strided_slice/stack", "op": "Const", "attr": {"value": {"tensor": {"dtype": "DT_INT32", "tensorShape": {"dim": [{"size": "1"}]}}}, "dtype": {"type": "DT_INT32"}}}, {"name": "StatefulPartitionedCall/sequential_4/token_and_position_embedding/strided_slice/stack_1", "op": "Const", "attr": {"value": {"tensor": {"dtype": "DT_INT32", "tensorShape": {"dim": [{"size": "1"}]}}}, "dtype": {"type": "DT_INT32"}}}, {"name": "StatefulPartitionedCall/sequential_4/token_and_position_embedding/strided_slice/stack_2", "op": "Const", "attr": {"value": {"tensor": {"dtype": "DT_INT32", "tensorShape": {"dim": [{"size": "1"}]}}}, "dtype": {"type": "DT_INT32"}}}, {"name": "StatefulPartitionedCall/sequential_4/token_and_position_embedding/range/delta", "op": "Const", "attr": {"value": {"tensor": {"dtype": "DT_INT32", "tensorShape": {}}}, "dtype": {"type": "DT_INT32"}}}, {"name": "StatefulPartitionedCall/sequential_4/token_and_position_embedding/embedding_1/embedding_lookup/axis", "op": "Const", "attr": {"value": {"tensor": {"dtype": "DT_INT32", "tensorShape": {}}}, "dtype": {"type": "DT_INT32"}}}, {"name": "StatefulPartitionedCall/sequential_4/transformer_block/dense_4/Tensordot/axes", "op": "Const", "attr": {"dtype": {"type": "DT_INT32"}, "value": {"tensor": {"dtype": "DT_INT32", "tensorShape": {"dim": [{"size": "1"}]}}}}}, {"name": "StatefulPartitionedCall/sequential_4/transformer_block/dense_4/Tensordot/GatherV2_1/axis", "op": "Const", "attr": {"value": {"tensor": {"dtype": "DT_INT32", "tensorShape": {}}}, "dtype": {"type": "DT_INT32"}}}, {"name": "StatefulPartitionedCall/sequential_4/transformer_block/dense_4/Tensordot/Const_1", "op": "Const", "attr": {"value": {"tensor": {"dtype": "DT_INT32", "tensorShape": {"dim": [{"size": "1"}]}}}, "dtype": {"type": "DT_INT32"}}}, {"name": "StatefulPartitionedCall/sequential_4/transformer_block/dense_4/Tensordot/ReadVariableOp", "op": "Const", "attr": {"value": {"tensor": {"dtype": "DT_FLOAT", "tensorShape": {"dim": [{"size": "64"}, {"size": "512"}]}}}, "dtype": {"type": "DT_FLOAT"}}}, {"name": "StatefulPartitionedCall/sequential_4/transformer_block/Reshape_1/shape", "op": "Const", "attr": {"value": {"tensor": {"dtype": "DT_INT32", "tensorShape": {"dim": [{"size": "4"}]}}}, "dtype": {"type": "DT_INT32"}}}, {"name": "StatefulPartitionedCall/sequential_4/transformer_block/transpose_2/perm", "op": "Const", "attr": {"value": {"tensor": {"dtype": "DT_INT32", "tensorShape": {"dim": [{"size": "4"}]}}}, "dtype": {"type": "DT_INT32"}}}, {"name": "StatefulPartitionedCall/sequential_4/transformer_block/transpose_3/perm", "op": "Const", "attr": {"value": {"tensor": {"dtype": "DT_INT32", "tensorShape": {"dim": [{"size": "4"}]}}}, "dtype": {"type": "DT_INT32"}}}, {"name": "StatefulPartitionedCall/sequential_4/transformer_block/Reshape_3/shape", "op": "Const", "attr": {"value": {"tensor": {"dtype": "DT_INT32", "tensorShape": {"dim": [{"size": "3"}]}}}, "dtype": {"type": "DT_INT32"}}}, {"name": "StatefulPartitionedCall/sequential_4/transformer_block/dense_6/Tensordot/free", "op": "Const", "attr": {"value": {"tensor": {"dtype": "DT_INT32", "tensorShape": {"dim": [{"size": "2"}]}}}, "dtype": {"type": "DT_INT32"}}}, {"name": "StatefulPartitionedCall/sequential_4/transformer_block/dense_6/Tensordot/GatherV2/axis", "op": "Const", "attr": {"value": {"tensor": {"dtype": "DT_INT32", "tensorShape": {}}}, "dtype": {"type": "DT_INT32"}}}, {"name": "StatefulPartitionedCall/sequential_4/transformer_block/dense_6/Tensordot/Const_2", "op": "Const", "attr": {"value": {"tensor": {"dtype": "DT_INT32", "tensorShape": {"dim": [{"size": "1"}]}}}, "dtype": {"type": "DT_INT32"}}}, {"name": "StatefulPartitionedCall/sequential_4/transformer_block/dense_6/Tensordot/concat_1/axis", "op": "Const", "attr": {"value": {"tensor": {"dtype": "DT_INT32", "tensorShape": {}}}, "dtype": {"type": "DT_INT32"}}}, {"name": "StatefulPartitionedCall/sequential_4/transformer_block/layer_normalization/moments/mean/reduction_indices", "op": "Const", "attr": {"value": {"tensor": {"dtype": "DT_INT32", "tensorShape": {"dim": [{"size": "1"}]}}}, "dtype": {"type": "DT_INT32"}}}, {"name": "StatefulPartitionedCall/sequential_4/transformer_block/layer_normalization/moments/variance/reduction_indices", "op": "Const", "attr": {"value": {"tensor": {"dtype": "DT_INT32", "tensorShape": {"dim": [{"size": "1"}]}}}, "dtype": {"type": "DT_INT32"}}}, {"name": "StatefulPartitionedCall/sequential_4/transformer_block/layer_normalization/batchnorm/add/y", "op": "Const", "attr": {"value": {"tensor": {"dtype": "DT_FLOAT", "tensorShape": {}}}, "dtype": {"type": "DT_FLOAT"}}}, {"name": "StatefulPartitionedCall/sequential_4/transformer_block/layer_normalization/batchnorm/mul/ReadVariableOp", "op": "Const", "attr": {"dtype": {"type": "DT_FLOAT"}, "value": {"tensor": {"dtype": "DT_FLOAT", "tensorShape": {"dim": [{"size": "64"}]}}}}}, {"name": "StatefulPartitionedCall/sequential_4/transformer_block/sequential_1/dense_7/Tensordot/free", "op": "Const", "attr": {"value": {"tensor": {"dtype": "DT_INT32", "tensorShape": {"dim": [{"size": "2"}]}}}, "dtype": {"type": "DT_INT32"}}}, {"name": "StatefulPartitionedCall/sequential_4/transformer_block/sequential_1/dense_7/Tensordot/GatherV2/axis", "op": "Const", "attr": {"dtype": {"type": "DT_INT32"}, "value": {"tensor": {"dtype": "DT_INT32", "tensorShape": {}}}}}, {"name": "StatefulPartitionedCall/sequential_4/transformer_block/sequential_1/dense_7/Tensordot/Const_2", "op": "Const", "attr": {"value": {"tensor": {"dtype": "DT_INT32", "tensorShape": {"dim": [{"size": "1"}]}}}, "dtype": {"type": "DT_INT32"}}}, {"name": "StatefulPartitionedCall/sequential_4/transformer_block/sequential_1/dense_7/Tensordot/concat_1/axis", "op": "Const", "attr": {"value": {"tensor": {"dtype": "DT_INT32", "tensorShape": {}}}, "dtype": {"type": "DT_INT32"}}}, {"name": "StatefulPartitionedCall/sequential_4/transformer_block/sequential_1/dense_7/BiasAdd/ReadVariableOp", "op": "Const", "attr": {"value": {"tensor": {"dtype": "DT_FLOAT", "tensorShape": {"dim": [{"size": "64"}]}}}, "dtype": {"type": "DT_FLOAT"}}}, {"name": "StatefulPartitionedCall/sequential_4/transformer_block/sequential_1/dense_8/Tensordot/free", "op": "Const", "attr": {"value": {"tensor": {"dtype": "DT_INT32", "tensorShape": {"dim": [{"size": "2"}]}}}, "dtype": {"type": "DT_INT32"}}}, {"name": "StatefulPartitionedCall/sequential_4/transformer_block/sequential_1/dense_8/Tensordot/GatherV2/axis", "op": "Const", "attr": {"value": {"tensor": {"dtype": "DT_INT32", "tensorShape": {}}}, "dtype": {"type": "DT_INT32"}}}, {"name": "StatefulPartitionedCall/sequential_4/transformer_block/sequential_1/dense_8/Tensordot/Const_2", "op": "Const", "attr": {"value": {"tensor": {"dtype": "DT_INT32", "tensorShape": {"dim": [{"size": "1"}]}}}, "dtype": {"type": "DT_INT32"}}}, {"name": "StatefulPartitionedCall/sequential_4/transformer_block/sequential_1/dense_8/Tensordot/concat_1/axis", "op": "Const", "attr": {"value": {"tensor": {"dtype": "DT_INT32", "tensorShape": {}}}, "dtype": {"type": "DT_INT32"}}}, {"name": "StatefulPartitionedCall/sequential_4/transformer_block/sequential_1/dense_8/BiasAdd/ReadVariableOp", "op": "Const", "attr": {"value": {"tensor": {"dtype": "DT_FLOAT", "tensorShape": {"dim": [{"size": "64"}]}}}, "dtype": {"type": "DT_FLOAT"}}}, {"name": "StatefulPartitionedCall/sequential_4/transformer_block/layer_normalization_1/moments/mean/reduction_indices", "op": "Const", "attr": {"value": {"tensor": {"dtype": "DT_INT32", "tensorShape": {"dim": [{"size": "1"}]}}}, "dtype": {"type": "DT_INT32"}}}, {"name": "StatefulPartitionedCall/sequential_4/transformer_block/layer_normalization_1/moments/variance/reduction_indices", "op": "Const", "attr": {"value": {"tensor": {"dtype": "DT_INT32", "tensorShape": {"dim": [{"size": "1"}]}}}, "dtype": {"type": "DT_INT32"}}}, {"name": "StatefulPartitionedCall/sequential_4/transformer_block/layer_normalization_1/batchnorm/add/y", "op": "Const", "attr": {"value": {"tensor": {"dtype": "DT_FLOAT", "tensorShape": {}}}, "dtype": {"type": "DT_FLOAT"}}}, {"name": "StatefulPartitionedCall/sequential_4/transformer_block/layer_normalization_1/batchnorm/mul/ReadVariableOp", "op": "Const", "attr": {"value": {"tensor": {"dtype": "DT_FLOAT", "tensorShape": {"dim": [{"size": "64"}]}}}, "dtype": {"type": "DT_FLOAT"}}}, {"name": "StatefulPartitionedCall/sequential_4/transformer_block_1/dense_10/Tensordot/axes", "op": "Const", "attr": {"value": {"tensor": {"dtype": "DT_INT32", "tensorShape": {"dim": [{"size": "1"}]}}}, "dtype": {"type": "DT_INT32"}}}, {"name": "StatefulPartitionedCall/sequential_4/transformer_block_1/dense_10/Tensordot/GatherV2_1/axis", "op": "Const", "attr": {"value": {"tensor": {"dtype": "DT_INT32", "tensorShape": {}}}, "dtype": {"type": "DT_INT32"}}}, {"name": "StatefulPartitionedCall/sequential_4/transformer_block_1/dense_10/Tensordot/Const_1", "op": "Const", "attr": {"value": {"tensor": {"dtype": "DT_INT32", "tensorShape": {"dim": [{"size": "1"}]}}}, "dtype": {"type": "DT_INT32"}}}, {"name": "StatefulPartitionedCall/sequential_4/transformer_block_1/dense_10/Tensordot/ReadVariableOp", "op": "Const", "attr": {"value": {"tensor": {"dtype": "DT_FLOAT", "tensorShape": {"dim": [{"size": "64"}, {"size": "512"}]}}}, "dtype": {"type": "DT_FLOAT"}}}, {"name": "StatefulPartitionedCall/sequential_4/transformer_block_1/Reshape_1/shape", "op": "Const", "attr": {"value": {"tensor": {"dtype": "DT_INT32", "tensorShape": {"dim": [{"size": "4"}]}}}, "dtype": {"type": "DT_INT32"}}}, {"name": "StatefulPartitionedCall/sequential_4/transformer_block_1/transpose_2/perm", "op": "Const", "attr": {"value": {"tensor": {"dtype": "DT_INT32", "tensorShape": {"dim": [{"size": "4"}]}}}, "dtype": {"type": "DT_INT32"}}}, {"name": "StatefulPartitionedCall/sequential_4/transformer_block_1/transpose_3/perm", "op": "Const", "attr": {"value": {"tensor": {"dtype": "DT_INT32", "tensorShape": {"dim": [{"size": "4"}]}}}, "dtype": {"type": "DT_INT32"}}}, {"name": "StatefulPartitionedCall/sequential_4/transformer_block_1/Reshape_3/shape", "op": "Const", "attr": {"value": {"tensor": {"dtype": "DT_INT32", "tensorShape": {"dim": [{"size": "3"}]}}}, "dtype": {"type": "DT_INT32"}}}, {"name": "StatefulPartitionedCall/sequential_4/transformer_block_1/dense_12/Tensordot/free", "op": "Const", "attr": {"value": {"tensor": {"dtype": "DT_INT32", "tensorShape": {"dim": [{"size": "2"}]}}}, "dtype": {"type": "DT_INT32"}}}, {"name": "StatefulPartitionedCall/sequential_4/transformer_block_1/dense_12/Tensordot/GatherV2/axis", "op": "Const", "attr": {"value": {"tensor": {"dtype": "DT_INT32", "tensorShape": {}}}, "dtype": {"type": "DT_INT32"}}}, {"name": "StatefulPartitionedCall/sequential_4/transformer_block_1/dense_12/Tensordot/Const_2", "op": "Const", "attr": {"value": {"tensor": {"dtype": "DT_INT32", "tensorShape": {"dim": [{"size": "1"}]}}}, "dtype": {"type": "DT_INT32"}}}, {"name": "StatefulPartitionedCall/sequential_4/transformer_block_1/dense_12/Tensordot/concat_1/axis", "op": "Const", "attr": {"value": {"tensor": {"dtype": "DT_INT32", "tensorShape": {}}}, "dtype": {"type": "DT_INT32"}}}, {"name": "StatefulPartitionedCall/sequential_4/transformer_block_1/layer_normalization_2/moments/mean/reduction_indices", "op": "Const", "attr": {"value": {"tensor": {"dtype": "DT_INT32", "tensorShape": {"dim": [{"size": "1"}]}}}, "dtype": {"type": "DT_INT32"}}}, {"name": "StatefulPartitionedCall/sequential_4/transformer_block_1/layer_normalization_2/moments/variance/reduction_indices", "op": "Const", "attr": {"value": {"tensor": {"dtype": "DT_INT32", "tensorShape": {"dim": [{"size": "1"}]}}}, "dtype": {"type": "DT_INT32"}}}, {"name": "StatefulPartitionedCall/sequential_4/transformer_block_1/layer_normalization_2/batchnorm/add/y", "op": "Const", "attr": {"value": {"tensor": {"dtype": "DT_FLOAT", "tensorShape": {}}}, "dtype": {"type": "DT_FLOAT"}}}, {"name": "StatefulPartitionedCall/sequential_4/transformer_block_1/layer_normalization_2/batchnorm/mul/ReadVariableOp", "op": "Const", "attr": {"dtype": {"type": "DT_FLOAT"}, "value": {"tensor": {"dtype": "DT_FLOAT", "tensorShape": {"dim": [{"size": "64"}]}}}}}, {"name": "StatefulPartitionedCall/sequential_4/transformer_block_1/sequential_2/dense_13/Tensordot/free", "op": "Const", "attr": {"dtype": {"type": "DT_INT32"}, "value": {"tensor": {"dtype": "DT_INT32", "tensorShape": {"dim": [{"size": "2"}]}}}}}, {"name": "StatefulPartitionedCall/sequential_4/transformer_block_1/sequential_2/dense_13/Tensordot/GatherV2/axis", "op": "Const", "attr": {"value": {"tensor": {"dtype": "DT_INT32", "tensorShape": {}}}, "dtype": {"type": "DT_INT32"}}}, {"name": "StatefulPartitionedCall/sequential_4/transformer_block_1/sequential_2/dense_13/Tensordot/Const_2", "op": "Const", "attr": {"value": {"tensor": {"dtype": "DT_INT32", "tensorShape": {"dim": [{"size": "1"}]}}}, "dtype": {"type": "DT_INT32"}}}, {"name": "StatefulPartitionedCall/sequential_4/transformer_block_1/sequential_2/dense_13/Tensordot/concat_1/axis", "op": "Const", "attr": {"value": {"tensor": {"dtype": "DT_INT32", "tensorShape": {}}}, "dtype": {"type": "DT_INT32"}}}, {"name": "StatefulPartitionedCall/sequential_4/transformer_block_1/sequential_2/dense_13/BiasAdd/ReadVariableOp", "op": "Const", "attr": {"value": {"tensor": {"dtype": "DT_FLOAT", "tensorShape": {"dim": [{"size": "64"}]}}}, "dtype": {"type": "DT_FLOAT"}}}, {"name": "StatefulPartitionedCall/sequential_4/transformer_block_1/sequential_2/dense_14/Tensordot/free", "op": "Const", "attr": {"value": {"tensor": {"dtype": "DT_INT32", "tensorShape": {"dim": [{"size": "2"}]}}}, "dtype": {"type": "DT_INT32"}}}, {"name": "StatefulPartitionedCall/sequential_4/transformer_block_1/sequential_2/dense_14/Tensordot/GatherV2/axis", "op": "Const", "attr": {"value": {"tensor": {"dtype": "DT_INT32", "tensorShape": {}}}, "dtype": {"type": "DT_INT32"}}}, {"name": "StatefulPartitionedCall/sequential_4/transformer_block_1/sequential_2/dense_14/Tensordot/Const_2", "op": "Const", "attr": {"value": {"tensor": {"dtype": "DT_INT32", "tensorShape": {"dim": [{"size": "1"}]}}}, "dtype": {"type": "DT_INT32"}}}, {"name": "StatefulPartitionedCall/sequential_4/transformer_block_1/sequential_2/dense_14/Tensordot/concat_1/axis", "op": "Const", "attr": {"value": {"tensor": {"dtype": "DT_INT32", "tensorShape": {}}}, "dtype": {"type": "DT_INT32"}}}, {"name": "StatefulPartitionedCall/sequential_4/transformer_block_1/sequential_2/dense_14/BiasAdd/ReadVariableOp", "op": "Const", "attr": {"value": {"tensor": {"dtype": "DT_FLOAT", "tensorShape": {"dim": [{"size": "64"}]}}}, "dtype": {"type": "DT_FLOAT"}}}, {"name": "StatefulPartitionedCall/sequential_4/transformer_block_1/layer_normalization_3/moments/mean/reduction_indices", "op": "Const", "attr": {"value": {"tensor": {"dtype": "DT_INT32", "tensorShape": {"dim": [{"size": "1"}]}}}, "dtype": {"type": "DT_INT32"}}}, {"name": "StatefulPartitionedCall/sequential_4/transformer_block_1/layer_normalization_3/moments/variance/reduction_indices", "op": "Const", "attr": {"value": {"tensor": {"dtype": "DT_INT32", "tensorShape": {"dim": [{"size": "1"}]}}}, "dtype": {"type": "DT_INT32"}}}, {"name": "StatefulPartitionedCall/sequential_4/transformer_block_1/layer_normalization_3/batchnorm/add/y", "op": "Const", "attr": {"value": {"tensor": {"dtype": "DT_FLOAT", "tensorShape": {}}}, "dtype": {"type": "DT_FLOAT"}}}, {"name": "StatefulPartitionedCall/sequential_4/transformer_block_1/layer_normalization_3/batchnorm/mul/ReadVariableOp", "op": "Const", "attr": {"value": {"tensor": {"dtype": "DT_FLOAT", "tensorShape": {"dim": [{"size": "64"}]}}}, "dtype": {"type": "DT_FLOAT"}}}, {"name": "StatefulPartitionedCall/sequential_4/transformer_block_2/dense_16/Tensordot/axes", "op": "Const", "attr": {"dtype": {"type": "DT_INT32"}, "value": {"tensor": {"dtype": "DT_INT32", "tensorShape": {"dim": [{"size": "1"}]}}}}}, {"name": "StatefulPartitionedCall/sequential_4/transformer_block_2/dense_16/Tensordot/GatherV2_1/axis", "op": "Const", "attr": {"value": {"tensor": {"dtype": "DT_INT32", "tensorShape": {}}}, "dtype": {"type": "DT_INT32"}}}, {"name": "StatefulPartitionedCall/sequential_4/transformer_block_2/dense_16/Tensordot/Const_1", "op": "Const", "attr": {"value": {"tensor": {"dtype": "DT_INT32", "tensorShape": {"dim": [{"size": "1"}]}}}, "dtype": {"type": "DT_INT32"}}}, {"name": "StatefulPartitionedCall/sequential_4/transformer_block_2/dense_16/Tensordot/ReadVariableOp", "op": "Const", "attr": {"value": {"tensor": {"dtype": "DT_FLOAT", "tensorShape": {"dim": [{"size": "64"}, {"size": "512"}]}}}, "dtype": {"type": "DT_FLOAT"}}}, {"name": "StatefulPartitionedCall/sequential_4/transformer_block_2/Reshape_1/shape", "op": "Const", "attr": {"value": {"tensor": {"dtype": "DT_INT32", "tensorShape": {"dim": [{"size": "4"}]}}}, "dtype": {"type": "DT_INT32"}}}, {"name": "StatefulPartitionedCall/sequential_4/transformer_block_2/transpose_2/perm", "op": "Const", "attr": {"dtype": {"type": "DT_INT32"}, "value": {"tensor": {"dtype": "DT_INT32", "tensorShape": {"dim": [{"size": "4"}]}}}}}, {"name": "StatefulPartitionedCall/sequential_4/transformer_block_2/transpose_3/perm", "op": "Const", "attr": {"value": {"tensor": {"dtype": "DT_INT32", "tensorShape": {"dim": [{"size": "4"}]}}}, "dtype": {"type": "DT_INT32"}}}, {"name": "StatefulPartitionedCall/sequential_4/transformer_block_2/Reshape_3/shape", "op": "Const", "attr": {"value": {"tensor": {"dtype": "DT_INT32", "tensorShape": {"dim": [{"size": "3"}]}}}, "dtype": {"type": "DT_INT32"}}}, {"name": "StatefulPartitionedCall/sequential_4/transformer_block_2/dense_18/Tensordot/free", "op": "Const", "attr": {"value": {"tensor": {"dtype": "DT_INT32", "tensorShape": {"dim": [{"size": "2"}]}}}, "dtype": {"type": "DT_INT32"}}}, {"name": "StatefulPartitionedCall/sequential_4/transformer_block_2/dense_18/Tensordot/GatherV2/axis", "op": "Const", "attr": {"dtype": {"type": "DT_INT32"}, "value": {"tensor": {"dtype": "DT_INT32", "tensorShape": {}}}}}, {"name": "StatefulPartitionedCall/sequential_4/transformer_block_2/dense_18/Tensordot/Const_2", "op": "Const", "attr": {"value": {"tensor": {"dtype": "DT_INT32", "tensorShape": {"dim": [{"size": "1"}]}}}, "dtype": {"type": "DT_INT32"}}}, {"name": "StatefulPartitionedCall/sequential_4/transformer_block_2/dense_18/Tensordot/concat_1/axis", "op": "Const", "attr": {"value": {"tensor": {"dtype": "DT_INT32", "tensorShape": {}}}, "dtype": {"type": "DT_INT32"}}}, {"name": "StatefulPartitionedCall/sequential_4/transformer_block_2/layer_normalization_4/moments/mean/reduction_indices", "op": "Const", "attr": {"value": {"tensor": {"dtype": "DT_INT32", "tensorShape": {"dim": [{"size": "1"}]}}}, "dtype": {"type": "DT_INT32"}}}, {"name": "StatefulPartitionedCall/sequential_4/transformer_block_2/layer_normalization_4/moments/variance/reduction_indices", "op": "Const", "attr": {"value": {"tensor": {"dtype": "DT_INT32", "tensorShape": {"dim": [{"size": "1"}]}}}, "dtype": {"type": "DT_INT32"}}}, {"name": "StatefulPartitionedCall/sequential_4/transformer_block_2/layer_normalization_4/batchnorm/add/y", "op": "Const", "attr": {"value": {"tensor": {"dtype": "DT_FLOAT", "tensorShape": {}}}, "dtype": {"type": "DT_FLOAT"}}}, {"name": "StatefulPartitionedCall/sequential_4/transformer_block_2/layer_normalization_4/batchnorm/mul/ReadVariableOp", "op": "Const", "attr": {"value": {"tensor": {"dtype": "DT_FLOAT", "tensorShape": {"dim": [{"size": "64"}]}}}, "dtype": {"type": "DT_FLOAT"}}}, {"name": "StatefulPartitionedCall/sequential_4/transformer_block_2/sequential_3/dense_19/Tensordot/free", "op": "Const", "attr": {"value": {"tensor": {"dtype": "DT_INT32", "tensorShape": {"dim": [{"size": "2"}]}}}, "dtype": {"type": "DT_INT32"}}}, {"name": "StatefulPartitionedCall/sequential_4/transformer_block_2/sequential_3/dense_19/Tensordot/GatherV2/axis", "op": "Const", "attr": {"value": {"tensor": {"dtype": "DT_INT32", "tensorShape": {}}}, "dtype": {"type": "DT_INT32"}}}, {"name": "StatefulPartitionedCall/sequential_4/transformer_block_2/sequential_3/dense_19/Tensordot/Const_2", "op": "Const", "attr": {"value": {"tensor": {"dtype": "DT_INT32", "tensorShape": {"dim": [{"size": "1"}]}}}, "dtype": {"type": "DT_INT32"}}}, {"name": "StatefulPartitionedCall/sequential_4/transformer_block_2/sequential_3/dense_19/Tensordot/concat_1/axis", "op": "Const", "attr": {"value": {"tensor": {"dtype": "DT_INT32", "tensorShape": {}}}, "dtype": {"type": "DT_INT32"}}}, {"name": "StatefulPartitionedCall/sequential_4/transformer_block_2/sequential_3/dense_19/BiasAdd/ReadVariableOp", "op": "Const", "attr": {"value": {"tensor": {"dtype": "DT_FLOAT", "tensorShape": {"dim": [{"size": "64"}]}}}, "dtype": {"type": "DT_FLOAT"}}}, {"name": "StatefulPartitionedCall/sequential_4/transformer_block_2/sequential_3/dense_20/Tensordot/free", "op": "Const", "attr": {"value": {"tensor": {"dtype": "DT_INT32", "tensorShape": {"dim": [{"size": "2"}]}}}, "dtype": {"type": "DT_INT32"}}}, {"name": "StatefulPartitionedCall/sequential_4/transformer_block_2/sequential_3/dense_20/Tensordot/GatherV2/axis", "op": "Const", "attr": {"value": {"tensor": {"dtype": "DT_INT32", "tensorShape": {}}}, "dtype": {"type": "DT_INT32"}}}, {"name": "StatefulPartitionedCall/sequential_4/transformer_block_2/sequential_3/dense_20/Tensordot/Const_2", "op": "Const", "attr": {"value": {"tensor": {"dtype": "DT_INT32", "tensorShape": {"dim": [{"size": "1"}]}}}, "dtype": {"type": "DT_INT32"}}}, {"name": "StatefulPartitionedCall/sequential_4/transformer_block_2/sequential_3/dense_20/Tensordot/concat_1/axis", "op": "Const", "attr": {"value": {"tensor": {"dtype": "DT_INT32", "tensorShape": {}}}, "dtype": {"type": "DT_INT32"}}}, {"name": "StatefulPartitionedCall/sequential_4/transformer_block_2/sequential_3/dense_20/BiasAdd/ReadVariableOp", "op": "Const", "attr": {"value": {"tensor": {"dtype": "DT_FLOAT", "tensorShape": {"dim": [{"size": "64"}]}}}, "dtype": {"type": "DT_FLOAT"}}}, {"name": "StatefulPartitionedCall/sequential_4/transformer_block_2/layer_normalization_5/moments/mean/reduction_indices", "op": "Const", "attr": {"value": {"tensor": {"dtype": "DT_INT32", "tensorShape": {"dim": [{"size": "1"}]}}}, "dtype": {"type": "DT_INT32"}}}, {"name": "StatefulPartitionedCall/sequential_4/transformer_block_2/layer_normalization_5/moments/variance/reduction_indices", "op": "Const", "attr": {"value": {"tensor": {"dtype": "DT_INT32", "tensorShape": {"dim": [{"size": "1"}]}}}, "dtype": {"type": "DT_INT32"}}}, {"name": "StatefulPartitionedCall/sequential_4/transformer_block_2/layer_normalization_5/batchnorm/add/y", "op": "Const", "attr": {"value": {"tensor": {"dtype": "DT_FLOAT", "tensorShape": {}}}, "dtype": {"type": "DT_FLOAT"}}}, {"name": "StatefulPartitionedCall/sequential_4/transformer_block_2/layer_normalization_5/batchnorm/mul/ReadVariableOp", "op": "Const", "attr": {"value": {"tensor": {"dtype": "DT_FLOAT", "tensorShape": {"dim": [{"size": "64"}]}}}, "dtype": {"type": "DT_FLOAT"}}}, {"name": "x", "op": "Placeholder", "attr": {"dtype": {"type": "DT_UINT8"}, "shape": {"shape": {"dim": [{"size": "-1"}, {"size": "256"}]}}}}, {"name": "StatefulPartitionedCall/sequential_4/Cast", "op": "Cast", "input": ["x"], "attr": {"Truncate": {"b": false}, "DstT": {"type": "DT_INT64"}, "SrcT": {"type": "DT_UINT8"}}}, {"name": "StatefulPartitionedCall/sequential_4/token_and_position_embedding/embedding/embedding_lookup", "op": "GatherV2", "input": ["unknown_0", "StatefulPartitionedCall/sequential_4/Cast", "StatefulPartitionedCall/sequential_4/token_and_position_embedding/embedding/embedding_lookup/axis"], "attr": {"Taxis": {"type": "DT_INT64"}, "batch_dims": {"i": "0"}, "Tindices": {"type": "DT_INT64"}, "Tparams": {"type": "DT_FLOAT"}}}, {"name": "StatefulPartitionedCall/sequential_4/token_and_position_embedding/Shape", "op": "Shape", "input": ["StatefulPartitionedCall/sequential_4/Cast"], "attr": {"T": {"type": "DT_INT64"}, "out_type": {"type": "DT_INT32"}}}, {"name": "StatefulPartitionedCall/sequential_4/token_and_position_embedding/strided_slice", "op": "StridedSlice", "input": ["StatefulPartitionedCall/sequential_4/token_and_position_embedding/Shape", "StatefulPartitionedCall/sequential_4/token_and_position_embedding/strided_slice/stack", "StatefulPartitionedCall/sequential_4/token_and_position_embedding/strided_slice/stack_1", "StatefulPartitionedCall/sequential_4/token_and_position_embedding/strided_slice/stack_2"], "attr": {"new_axis_mask": {"i": "0"}, "end_mask": {"i": "0"}, "T": {"type": "DT_INT32"}, "Index": {"type": "DT_INT32"}, "shrink_axis_mask": {"i": "1"}, "ellipsis_mask": {"i": "0"}, "begin_mask": {"i": "0"}}}, {"name": "StatefulPartitionedCall/sequential_4/token_and_position_embedding/range", "op": "Range", "input": ["StatefulPartitionedCall/sequential_4/token_and_position_embedding/range/start", "StatefulPartitionedCall/sequential_4/token_and_position_embedding/strided_slice", "StatefulPartitionedCall/sequential_4/token_and_position_embedding/range/delta"], "attr": {"Tidx": {"type": "DT_INT32"}}}, {"name": "StatefulPartitionedCall/sequential_4/token_and_position_embedding/embedding_1/embedding_lookup", "op": "GatherV2", "input": ["unknown", "StatefulPartitionedCall/sequential_4/token_and_position_embedding/range", "StatefulPartitionedCall/sequential_4/token_and_position_embedding/embedding_1/embedding_lookup/axis"], "attr": {"Taxis": {"type": "DT_INT32"}, "batch_dims": {"i": "0"}, "Tindices": {"type": "DT_INT32"}, "Tparams": {"type": "DT_FLOAT"}}}, {"name": "StatefulPartitionedCall/sequential_4/token_and_position_embedding/add", "op": "AddV2", "input": ["StatefulPartitionedCall/sequential_4/token_and_position_embedding/embedding/embedding_lookup", "StatefulPartitionedCall/sequential_4/token_and_position_embedding/embedding_1/embedding_lookup"], "attr": {"T": {"type": "DT_FLOAT"}}}, {"name": "StatefulPartitionedCall/sequential_4/transformer_block/dense_3/Tensordot/Shape", "op": "Shape", "input": ["StatefulPartitionedCall/sequential_4/token_and_position_embedding/add"], "attr": {"T": {"type": "DT_FLOAT"}, "out_type": {"type": "DT_INT32"}}}, {"name": "StatefulPartitionedCall/sequential_4/transformer_block/dense_5/Tensordot/Shape", "op": "Shape", "input": ["StatefulPartitionedCall/sequential_4/token_and_position_embedding/add"], "attr": {"T": {"type": "DT_FLOAT"}, "out_type": {"type": "DT_INT32"}}}, {"name": "StatefulPartitionedCall/sequential_4/transformer_block/dense_4/Tensordot/Shape", "op": "Shape", "input": ["StatefulPartitionedCall/sequential_4/token_and_position_embedding/add"], "attr": {"T": {"type": "DT_FLOAT"}, "out_type": {"type": "DT_INT32"}}}, {"name": "StatefulPartitionedCall/sequential_4/transformer_block/dense_3/Tensordot/GatherV2", "op": "GatherV2", "input": ["StatefulPartitionedCall/sequential_4/transformer_block/dense_3/Tensordot/Shape", "StatefulPartitionedCall/sequential_4/transformer_block/dense_3/Tensordot/free", "StatefulPartitionedCall/sequential_4/transformer_block/dense_3/Tensordot/GatherV2/axis"], "attr": {"Taxis": {"type": "DT_INT32"}, "batch_dims": {"i": "0"}, "Tindices": {"type": "DT_INT32"}, "Tparams": {"type": "DT_INT32"}}}, {"name": "StatefulPartitionedCall/sequential_4/transformer_block/dense_3/Tensordot/GatherV2_1", "op": "GatherV2", "input": ["StatefulPartitionedCall/sequential_4/transformer_block/dense_3/Tensordot/Shape", "StatefulPartitionedCall/sequential_4/transformer_block/dense_3/Tensordot/axes", "StatefulPartitionedCall/sequential_4/transformer_block/dense_3/Tensordot/GatherV2_1/axis"], "attr": {"Tparams": {"type": "DT_INT32"}, "Taxis": {"type": "DT_INT32"}, "batch_dims": {"i": "0"}, "Tindices": {"type": "DT_INT32"}}}, {"name": "StatefulPartitionedCall/sequential_4/transformer_block/dense_5/Tensordot/GatherV2", "op": "GatherV2", "input": ["StatefulPartitionedCall/sequential_4/transformer_block/dense_5/Tensordot/Shape", "StatefulPartitionedCall/sequential_4/transformer_block/dense_5/Tensordot/free", "StatefulPartitionedCall/sequential_4/transformer_block/dense_5/Tensordot/GatherV2/axis"], "attr": {"Tparams": {"type": "DT_INT32"}, "Taxis": {"type": "DT_INT32"}, "batch_dims": {"i": "0"}, "Tindices": {"type": "DT_INT32"}}}, {"name": "StatefulPartitionedCall/sequential_4/transformer_block/dense_5/Tensordot/GatherV2_1", "op": "GatherV2", "input": ["StatefulPartitionedCall/sequential_4/transformer_block/dense_5/Tensordot/Shape", "StatefulPartitionedCall/sequential_4/transformer_block/dense_5/Tensordot/axes", "StatefulPartitionedCall/sequential_4/transformer_block/dense_5/Tensordot/GatherV2_1/axis"], "attr": {"Taxis": {"type": "DT_INT32"}, "batch_dims": {"i": "0"}, "Tindices": {"type": "DT_INT32"}, "Tparams": {"type": "DT_INT32"}}}, {"name": "StatefulPartitionedCall/sequential_4/transformer_block/dense_4/Tensordot/GatherV2", "op": "GatherV2", "input": ["StatefulPartitionedCall/sequential_4/transformer_block/dense_4/Tensordot/Shape", "StatefulPartitionedCall/sequential_4/transformer_block/dense_4/Tensordot/free", "StatefulPartitionedCall/sequential_4/transformer_block/dense_4/Tensordot/GatherV2/axis"], "attr": {"Taxis": {"type": "DT_INT32"}, "batch_dims": {"i": "0"}, "Tindices": {"type": "DT_INT32"}, "Tparams": {"type": "DT_INT32"}}}, {"name": "StatefulPartitionedCall/sequential_4/transformer_block/dense_4/Tensordot/GatherV2_1", "op": "GatherV2", "input": ["StatefulPartitionedCall/sequential_4/transformer_block/dense_4/Tensordot/Shape", "StatefulPartitionedCall/sequential_4/transformer_block/dense_4/Tensordot/axes", "StatefulPartitionedCall/sequential_4/transformer_block/dense_4/Tensordot/GatherV2_1/axis"], "attr": {"batch_dims": {"i": "0"}, "Tindices": {"type": "DT_INT32"}, "Tparams": {"type": "DT_INT32"}, "Taxis": {"type": "DT_INT32"}}}, {"name": "StatefulPartitionedCall/sequential_4/transformer_block/dense_3/Tensordot/Prod", "op": "Prod", "input": ["StatefulPartitionedCall/sequential_4/transformer_block/dense_3/Tensordot/GatherV2", "StatefulPartitionedCall/sequential_4/transformer_block/dense_3/Tensordot/Const"], "attr": {"T": {"type": "DT_INT32"}, "Tidx": {"type": "DT_INT32"}, "keep_dims": {"b": false}}}, {"name": "StatefulPartitionedCall/sequential_4/transformer_block/dense_3/Tensordot/Prod_1", "op": "Prod", "input": ["StatefulPartitionedCall/sequential_4/transformer_block/dense_3/Tensordot/GatherV2_1", "StatefulPartitionedCall/sequential_4/transformer_block/dense_3/Tensordot/Const_1"], "attr": {"Tidx": {"type": "DT_INT32"}, "keep_dims": {"b": false}, "T": {"type": "DT_INT32"}}}, {"name": "StatefulPartitionedCall/sequential_4/transformer_block/dense_5/Tensordot/Prod", "op": "Prod", "input": ["StatefulPartitionedCall/sequential_4/transformer_block/dense_5/Tensordot/GatherV2", "StatefulPartitionedCall/sequential_4/transformer_block/dense_5/Tensordot/Const"], "attr": {"T": {"type": "DT_INT32"}, "Tidx": {"type": "DT_INT32"}, "keep_dims": {"b": false}}}, {"name": "StatefulPartitionedCall/sequential_4/transformer_block/dense_5/Tensordot/Prod_1", "op": "Prod", "input": ["StatefulPartitionedCall/sequential_4/transformer_block/dense_5/Tensordot/GatherV2_1", "StatefulPartitionedCall/sequential_4/transformer_block/dense_5/Tensordot/Const_1"], "attr": {"Tidx": {"type": "DT_INT32"}, "keep_dims": {"b": false}, "T": {"type": "DT_INT32"}}}, {"name": "StatefulPartitionedCall/sequential_4/transformer_block/dense_4/Tensordot/Prod", "op": "Prod", "input": ["StatefulPartitionedCall/sequential_4/transformer_block/dense_4/Tensordot/GatherV2", "StatefulPartitionedCall/sequential_4/transformer_block/dense_4/Tensordot/Const"], "attr": {"Tidx": {"type": "DT_INT32"}, "keep_dims": {"b": false}, "T": {"type": "DT_INT32"}}}, {"name": "StatefulPartitionedCall/sequential_4/transformer_block/dense_4/Tensordot/Prod_1", "op": "Prod", "input": ["StatefulPartitionedCall/sequential_4/transformer_block/dense_4/Tensordot/GatherV2_1", "StatefulPartitionedCall/sequential_4/transformer_block/dense_4/Tensordot/Const_1"], "attr": {"Tidx": {"type": "DT_INT32"}, "keep_dims": {"b": false}, "T": {"type": "DT_INT32"}}}, {"name": "StatefulPartitionedCall/sequential_4/transformer_block/dense_3/Tensordot/stack", "op": "Pack", "input": ["StatefulPartitionedCall/sequential_4/transformer_block/dense_3/Tensordot/Prod", "StatefulPartitionedCall/sequential_4/transformer_block/dense_3/Tensordot/Prod_1"], "attr": {"T": {"type": "DT_INT32"}, "axis": {"i": "0"}, "N": {"i": "2"}}}, {"name": "StatefulPartitionedCall/sequential_4/transformer_block/dense_5/Tensordot/stack", "op": "Pack", "input": ["StatefulPartitionedCall/sequential_4/transformer_block/dense_5/Tensordot/Prod", "StatefulPartitionedCall/sequential_4/transformer_block/dense_5/Tensordot/Prod_1"], "attr": {"T": {"type": "DT_INT32"}, "axis": {"i": "0"}, "N": {"i": "2"}}}, {"name": "StatefulPartitionedCall/sequential_4/transformer_block/dense_4/Tensordot/stack", "op": "Pack", "input": ["StatefulPartitionedCall/sequential_4/transformer_block/dense_4/Tensordot/Prod", "StatefulPartitionedCall/sequential_4/transformer_block/dense_4/Tensordot/Prod_1"], "attr": {"T": {"type": "DT_INT32"}, "axis": {"i": "0"}, "N": {"i": "2"}}}, {"name": "StatefulPartitionedCall/sequential_4/transformer_block/dense_3/Tensordot/Reshape", "op": "Reshape", "input": ["StatefulPartitionedCall/sequential_4/token_and_position_embedding/add", "StatefulPartitionedCall/sequential_4/transformer_block/dense_3/Tensordot/stack"], "attr": {"T": {"type": "DT_FLOAT"}, "Tshape": {"type": "DT_INT32"}}}, {"name": "StatefulPartitionedCall/sequential_4/transformer_block/dense_5/Tensordot/Reshape", "op": "Reshape", "input": ["StatefulPartitionedCall/sequential_4/token_and_position_embedding/add", "StatefulPartitionedCall/sequential_4/transformer_block/dense_5/Tensordot/stack"], "attr": {"T": {"type": "DT_FLOAT"}, "Tshape": {"type": "DT_INT32"}}}, {"name": "StatefulPartitionedCall/sequential_4/transformer_block/dense_4/Tensordot/Reshape", "op": "Reshape", "input": ["StatefulPartitionedCall/sequential_4/token_and_position_embedding/add", "StatefulPartitionedCall/sequential_4/transformer_block/dense_4/Tensordot/stack"], "attr": {"T": {"type": "DT_FLOAT"}, "Tshape": {"type": "DT_INT32"}}}, {"name": "StatefulPartitionedCall/sequential_4/transformer_block/dense_3/Tensordot/MatMul", "op": "MatMul", "input": ["StatefulPartitionedCall/sequential_4/transformer_block/dense_3/Tensordot/Reshape", "StatefulPartitionedCall/sequential_4/transformer_block/dense_3/Tensordot/ReadVariableOp"], "device": "/device:CPU:0", "attr": {"transpose_a": {"b": false}, "transpose_b": {"b": false}, "T": {"type": "DT_FLOAT"}}}, {"name": "StatefulPartitionedCall/sequential_4/transformer_block/dense_5/Tensordot/MatMul", "op": "MatMul", "input": ["StatefulPartitionedCall/sequential_4/transformer_block/dense_5/Tensordot/Reshape", "StatefulPartitionedCall/sequential_4/transformer_block/dense_5/Tensordot/ReadVariableOp"], "device": "/device:CPU:0", "attr": {"transpose_a": {"b": false}, "transpose_b": {"b": false}, "T": {"type": "DT_FLOAT"}}}, {"name": "StatefulPartitionedCall/sequential_4/transformer_block/dense_4/Tensordot/MatMul", "op": "MatMul", "input": ["StatefulPartitionedCall/sequential_4/transformer_block/dense_4/Tensordot/Reshape", "StatefulPartitionedCall/sequential_4/transformer_block/dense_4/Tensordot/ReadVariableOp"], "device": "/device:CPU:0", "attr": {"transpose_a": {"b": false}, "transpose_b": {"b": false}, "T": {"type": "DT_FLOAT"}}}, {"name": "StatefulPartitionedCall/sequential_4/transformer_block/Reshape", "op": "Reshape", "input": ["StatefulPartitionedCall/sequential_4/transformer_block/dense_3/Tensordot/MatMul", "StatefulPartitionedCall/sequential_4/transformer_block/Reshape/shape"], "attr": {"T": {"type": "DT_FLOAT"}, "Tshape": {"type": "DT_INT32"}}}, {"name": "StatefulPartitionedCall/sequential_4/transformer_block/Reshape_2", "op": "Reshape", "input": ["StatefulPartitionedCall/sequential_4/transformer_block/dense_5/Tensordot/MatMul", "StatefulPartitionedCall/sequential_4/transformer_block/Reshape_2/shape"], "attr": {"T": {"type": "DT_FLOAT"}, "Tshape": {"type": "DT_INT32"}}}, {"name": "StatefulPartitionedCall/sequential_4/transformer_block/Reshape_1", "op": "Reshape", "input": ["StatefulPartitionedCall/sequential_4/transformer_block/dense_4/Tensordot/MatMul", "StatefulPartitionedCall/sequential_4/transformer_block/Reshape_1/shape"], "attr": {"T": {"type": "DT_FLOAT"}, "Tshape": {"type": "DT_INT32"}}}, {"name": "StatefulPartitionedCall/sequential_4/transformer_block/transpose", "op": "Transpose", "input": ["StatefulPartitionedCall/sequential_4/transformer_block/Reshape", "StatefulPartitionedCall/sequential_4/transformer_block/transpose/perm"], "attr": {"T": {"type": "DT_FLOAT"}, "Tperm": {"type": "DT_INT32"}}}, {"name": "StatefulPartitionedCall/sequential_4/transformer_block/transpose_1", "op": "Transpose", "input": ["StatefulPartitionedCall/sequential_4/transformer_block/Reshape_2", "StatefulPartitionedCall/sequential_4/transformer_block/transpose_1/perm"], "attr": {"Tperm": {"type": "DT_INT32"}, "T": {"type": "DT_FLOAT"}}}, {"name": "StatefulPartitionedCall/sequential_4/transformer_block/transpose_2", "op": "Transpose", "input": ["StatefulPartitionedCall/sequential_4/transformer_block/Reshape_1", "StatefulPartitionedCall/sequential_4/transformer_block/transpose_2/perm"], "attr": {"T": {"type": "DT_FLOAT"}, "Tperm": {"type": "DT_INT32"}}}, {"name": "StatefulPartitionedCall/sequential_4/transformer_block/matmul", "op": "BatchMatMulV2", "input": ["StatefulPartitionedCall/sequential_4/transformer_block/transpose", "StatefulPartitionedCall/sequential_4/transformer_block/transpose_1"], "attr": {"adj_x": {"b": false}, "adj_y": {"b": false}, "T": {"type": "DT_FLOAT"}}}, {"name": "StatefulPartitionedCall/sequential_4/transformer_block/truediv", "op": "Mul", "input": ["StatefulPartitionedCall/sequential_4/transformer_block/matmul", "ConstantFolding/StatefulPartitionedCall/sequential_4/transformer_block/truediv_recip"], "attr": {"T": {"type": "DT_FLOAT"}}}, {"name": "StatefulPartitionedCall/sequential_4/transformer_block/Softmax", "op": "Softmax", "input": ["StatefulPartitionedCall/sequential_4/transformer_block/truediv"], "attr": {"T": {"type": "DT_FLOAT"}}}, {"name": "StatefulPartitionedCall/sequential_4/transformer_block/matmul_1", "op": "BatchMatMulV2", "input": ["StatefulPartitionedCall/sequential_4/transformer_block/Softmax", "StatefulPartitionedCall/sequential_4/transformer_block/transpose_2"], "attr": {"adj_x": {"b": false}, "adj_y": {"b": false}, "T": {"type": "DT_FLOAT"}}}, {"name": "StatefulPartitionedCall/sequential_4/transformer_block/transpose_3", "op": "Transpose", "input": ["StatefulPartitionedCall/sequential_4/transformer_block/matmul_1", "StatefulPartitionedCall/sequential_4/transformer_block/transpose_3/perm"], "attr": {"T": {"type": "DT_FLOAT"}, "Tperm": {"type": "DT_INT32"}}}, {"name": "StatefulPartitionedCall/sequential_4/transformer_block/Reshape_3", "op": "Reshape", "input": ["StatefulPartitionedCall/sequential_4/transformer_block/transpose_3", "StatefulPartitionedCall/sequential_4/transformer_block/Reshape_3/shape"], "attr": {"T": {"type": "DT_FLOAT"}, "Tshape": {"type": "DT_INT32"}}}, {"name": "StatefulPartitionedCall/sequential_4/transformer_block/dense_6/Tensordot/Shape", "op": "Shape", "input": ["StatefulPartitionedCall/sequential_4/transformer_block/Reshape_3"], "attr": {"T": {"type": "DT_FLOAT"}, "out_type": {"type": "DT_INT32"}}}, {"name": "StatefulPartitionedCall/sequential_4/transformer_block/dense_6/Tensordot/GatherV2_1", "op": "GatherV2", "input": ["StatefulPartitionedCall/sequential_4/transformer_block/dense_6/Tensordot/Shape", "StatefulPartitionedCall/sequential_4/transformer_block/dense_6/Tensordot/axes", "StatefulPartitionedCall/sequential_4/transformer_block/dense_6/Tensordot/GatherV2_1/axis"], "attr": {"Taxis": {"type": "DT_INT32"}, "batch_dims": {"i": "0"}, "Tindices": {"type": "DT_INT32"}, "Tparams": {"type": "DT_INT32"}}}, {"name": "StatefulPartitionedCall/sequential_4/transformer_block/dense_6/Tensordot/GatherV2", "op": "GatherV2", "input": ["StatefulPartitionedCall/sequential_4/transformer_block/dense_6/Tensordot/Shape", "StatefulPartitionedCall/sequential_4/transformer_block/dense_6/Tensordot/free", "StatefulPartitionedCall/sequential_4/transformer_block/dense_6/Tensordot/GatherV2/axis"], "attr": {"Tindices": {"type": "DT_INT32"}, "Tparams": {"type": "DT_INT32"}, "Taxis": {"type": "DT_INT32"}, "batch_dims": {"i": "0"}}}, {"name": "StatefulPartitionedCall/sequential_4/transformer_block/dense_6/Tensordot/Prod_1", "op": "Prod", "input": ["StatefulPartitionedCall/sequential_4/transformer_block/dense_6/Tensordot/GatherV2_1", "StatefulPartitionedCall/sequential_4/transformer_block/dense_6/Tensordot/Const_1"], "attr": {"T": {"type": "DT_INT32"}, "Tidx": {"type": "DT_INT32"}, "keep_dims": {"b": false}}}, {"name": "StatefulPartitionedCall/sequential_4/transformer_block/dense_6/Tensordot/Prod", "op": "Prod", "input": ["StatefulPartitionedCall/sequential_4/transformer_block/dense_6/Tensordot/GatherV2", "StatefulPartitionedCall/sequential_4/transformer_block/dense_6/Tensordot/Const"], "attr": {"T": {"type": "DT_INT32"}, "Tidx": {"type": "DT_INT32"}, "keep_dims": {"b": false}}}, {"name": "StatefulPartitionedCall/sequential_4/transformer_block/dense_6/Tensordot/concat_1", "op": "ConcatV2", "input": ["StatefulPartitionedCall/sequential_4/transformer_block/dense_6/Tensordot/GatherV2", "StatefulPartitionedCall/sequential_4/transformer_block/dense_6/Tensordot/Const_2", "StatefulPartitionedCall/sequential_4/transformer_block/dense_6/Tensordot/concat_1/axis"], "attr": {"Tidx": {"type": "DT_INT32"}, "T": {"type": "DT_INT32"}, "N": {"i": "2"}}}, {"name": "StatefulPartitionedCall/sequential_4/transformer_block/dense_6/Tensordot/stack", "op": "Pack", "input": ["StatefulPartitionedCall/sequential_4/transformer_block/dense_6/Tensordot/Prod", "StatefulPartitionedCall/sequential_4/transformer_block/dense_6/Tensordot/Prod_1"], "attr": {"T": {"type": "DT_INT32"}, "axis": {"i": "0"}, "N": {"i": "2"}}}, {"name": "StatefulPartitionedCall/sequential_4/transformer_block/dense_6/Tensordot/Reshape", "op": "Reshape", "input": ["StatefulPartitionedCall/sequential_4/transformer_block/transpose_3", "StatefulPartitionedCall/sequential_4/transformer_block/dense_6/Tensordot/stack"], "attr": {"T": {"type": "DT_FLOAT"}, "Tshape": {"type": "DT_INT32"}}}, {"name": "StatefulPartitionedCall/sequential_4/transformer_block/dense_6/Tensordot/MatMul", "op": "MatMul", "input": ["StatefulPartitionedCall/sequential_4/transformer_block/dense_6/Tensordot/Reshape", "StatefulPartitionedCall/sequential_4/transformer_block/dense_6/Tensordot/ReadVariableOp"], "device": "/device:CPU:0", "attr": {"transpose_a": {"b": false}, "transpose_b": {"b": false}, "T": {"type": "DT_FLOAT"}}}, {"name": "StatefulPartitionedCall/sequential_4/transformer_block/dense_6/Tensordot", "op": "Reshape", "input": ["StatefulPartitionedCall/sequential_4/transformer_block/dense_6/Tensordot/MatMul", "StatefulPartitionedCall/sequential_4/transformer_block/dense_6/Tensordot/concat_1"], "attr": {"T": {"type": "DT_FLOAT"}, "Tshape": {"type": "DT_INT32"}}}, {"name": "StatefulPartitionedCall/sequential_4/transformer_block/add", "op": "AddV2", "input": ["StatefulPartitionedCall/sequential_4/token_and_position_embedding/add", "StatefulPartitionedCall/sequential_4/transformer_block/dense_6/Tensordot"], "attr": {"T": {"type": "DT_FLOAT"}}}, {"name": "StatefulPartitionedCall/sequential_4/transformer_block/layer_normalization/moments/mean", "op": "Mean", "input": ["StatefulPartitionedCall/sequential_4/transformer_block/add", "StatefulPartitionedCall/sequential_4/transformer_block/layer_normalization/moments/mean/reduction_indices"], "attr": {"Tidx": {"type": "DT_INT32"}, "keep_dims": {"b": true}, "T": {"type": "DT_FLOAT"}}}, {"name": "StatefulPartitionedCall/sequential_4/transformer_block/layer_normalization/moments/SquaredDifference", "op": "SquaredDifference", "input": ["StatefulPartitionedCall/sequential_4/transformer_block/add", "StatefulPartitionedCall/sequential_4/transformer_block/layer_normalization/moments/mean"], "attr": {"T": {"type": "DT_FLOAT"}}}, {"name": "StatefulPartitionedCall/sequential_4/transformer_block/layer_normalization/moments/variance", "op": "Mean", "input": ["StatefulPartitionedCall/sequential_4/transformer_block/layer_normalization/moments/SquaredDifference", "StatefulPartitionedCall/sequential_4/transformer_block/layer_normalization/moments/variance/reduction_indices"], "attr": {"Tidx": {"type": "DT_INT32"}, "keep_dims": {"b": true}, "T": {"type": "DT_FLOAT"}}}, {"name": "StatefulPartitionedCall/sequential_4/transformer_block/layer_normalization/batchnorm/add", "op": "AddV2", "input": ["StatefulPartitionedCall/sequential_4/transformer_block/layer_normalization/moments/variance", "StatefulPartitionedCall/sequential_4/transformer_block/layer_normalization/batchnorm/add/y"], "attr": {"T": {"type": "DT_FLOAT"}}}, {"name": "StatefulPartitionedCall/sequential_4/transformer_block/layer_normalization/batchnorm/Rsqrt", "op": "Rsqrt", "input": ["StatefulPartitionedCall/sequential_4/transformer_block/layer_normalization/batchnorm/add"], "attr": {"T": {"type": "DT_FLOAT"}}}, {"name": "StatefulPartitionedCall/sequential_4/transformer_block/layer_normalization/batchnorm/mul", "op": "Mul", "input": ["StatefulPartitionedCall/sequential_4/transformer_block/layer_normalization/batchnorm/Rsqrt", "StatefulPartitionedCall/sequential_4/transformer_block/layer_normalization/batchnorm/mul/ReadVariableOp"], "attr": {"T": {"type": "DT_FLOAT"}}}, {"name": "StatefulPartitionedCall/sequential_4/transformer_block/layer_normalization/batchnorm/mul_2", "op": "Mul", "input": ["StatefulPartitionedCall/sequential_4/transformer_block/layer_normalization/moments/mean", "StatefulPartitionedCall/sequential_4/transformer_block/layer_normalization/batchnorm/mul"], "attr": {"T": {"type": "DT_FLOAT"}}}, {"name": "StatefulPartitionedCall/sequential_4/transformer_block/layer_normalization/batchnorm/mul_1", "op": "Mul", "input": ["StatefulPartitionedCall/sequential_4/transformer_block/add", "StatefulPartitionedCall/sequential_4/transformer_block/layer_normalization/batchnorm/mul"], "attr": {"T": {"type": "DT_FLOAT"}}}, {"name": "StatefulPartitionedCall/sequential_4/transformer_block/layer_normalization/batchnorm/sub", "op": "Sub", "input": ["StatefulPartitionedCall/sequential_4/transformer_block/layer_normalization/batchnorm/ReadVariableOp", "StatefulPartitionedCall/sequential_4/transformer_block/layer_normalization/batchnorm/mul_2"], "attr": {"T": {"type": "DT_FLOAT"}}}, {"name": "StatefulPartitionedCall/sequential_4/transformer_block/layer_normalization/batchnorm/add_1", "op": "AddV2", "input": ["StatefulPartitionedCall/sequential_4/transformer_block/layer_normalization/batchnorm/mul_1", "StatefulPartitionedCall/sequential_4/transformer_block/layer_normalization/batchnorm/sub"], "attr": {"T": {"type": "DT_FLOAT"}}}, {"name": "StatefulPartitionedCall/sequential_4/transformer_block/sequential_1/dense_7/Tensordot/Shape", "op": "Shape", "input": ["StatefulPartitionedCall/sequential_4/transformer_block/layer_normalization/batchnorm/add_1"], "attr": {"T": {"type": "DT_FLOAT"}, "out_type": {"type": "DT_INT32"}}}, {"name": "StatefulPartitionedCall/sequential_4/transformer_block/sequential_1/dense_7/Tensordot/GatherV2_1", "op": "GatherV2", "input": ["StatefulPartitionedCall/sequential_4/transformer_block/sequential_1/dense_7/Tensordot/Shape", "StatefulPartitionedCall/sequential_4/transformer_block/sequential_1/dense_7/Tensordot/axes", "StatefulPartitionedCall/sequential_4/transformer_block/sequential_1/dense_7/Tensordot/GatherV2_1/axis"], "attr": {"Taxis": {"type": "DT_INT32"}, "batch_dims": {"i": "0"}, "Tindices": {"type": "DT_INT32"}, "Tparams": {"type": "DT_INT32"}}}, {"name": "StatefulPartitionedCall/sequential_4/transformer_block/sequential_1/dense_7/Tensordot/GatherV2", "op": "GatherV2", "input": ["StatefulPartitionedCall/sequential_4/transformer_block/sequential_1/dense_7/Tensordot/Shape", "StatefulPartitionedCall/sequential_4/transformer_block/sequential_1/dense_7/Tensordot/free", "StatefulPartitionedCall/sequential_4/transformer_block/sequential_1/dense_7/Tensordot/GatherV2/axis"], "attr": {"Taxis": {"type": "DT_INT32"}, "batch_dims": {"i": "0"}, "Tindices": {"type": "DT_INT32"}, "Tparams": {"type": "DT_INT32"}}}, {"name": "StatefulPartitionedCall/sequential_4/transformer_block/sequential_1/dense_7/Tensordot/Prod_1", "op": "Prod", "input": ["StatefulPartitionedCall/sequential_4/transformer_block/sequential_1/dense_7/Tensordot/GatherV2_1", "StatefulPartitionedCall/sequential_4/transformer_block/sequential_1/dense_7/Tensordot/Const_1"], "attr": {"Tidx": {"type": "DT_INT32"}, "keep_dims": {"b": false}, "T": {"type": "DT_INT32"}}}, {"name": "StatefulPartitionedCall/sequential_4/transformer_block/sequential_1/dense_7/Tensordot/Prod", "op": "Prod", "input": ["StatefulPartitionedCall/sequential_4/transformer_block/sequential_1/dense_7/Tensordot/GatherV2", "StatefulPartitionedCall/sequential_4/transformer_block/sequential_1/dense_7/Tensordot/Const"], "attr": {"T": {"type": "DT_INT32"}, "Tidx": {"type": "DT_INT32"}, "keep_dims": {"b": false}}}, {"name": "StatefulPartitionedCall/sequential_4/transformer_block/sequential_1/dense_7/Tensordot/concat_1", "op": "ConcatV2", "input": ["StatefulPartitionedCall/sequential_4/transformer_block/sequential_1/dense_7/Tensordot/GatherV2", "StatefulPartitionedCall/sequential_4/transformer_block/sequential_1/dense_7/Tensordot/Const_2", "StatefulPartitionedCall/sequential_4/transformer_block/sequential_1/dense_7/Tensordot/concat_1/axis"], "attr": {"Tidx": {"type": "DT_INT32"}, "T": {"type": "DT_INT32"}, "N": {"i": "2"}}}, {"name": "StatefulPartitionedCall/sequential_4/transformer_block/sequential_1/dense_7/Tensordot/stack", "op": "Pack", "input": ["StatefulPartitionedCall/sequential_4/transformer_block/sequential_1/dense_7/Tensordot/Prod", "StatefulPartitionedCall/sequential_4/transformer_block/sequential_1/dense_7/Tensordot/Prod_1"], "attr": {"T": {"type": "DT_INT32"}, "axis": {"i": "0"}, "N": {"i": "2"}}}, {"name": "StatefulPartitionedCall/sequential_4/transformer_block/sequential_1/dense_7/Tensordot/Reshape", "op": "Reshape", "input": ["StatefulPartitionedCall/sequential_4/transformer_block/layer_normalization/batchnorm/add_1", "StatefulPartitionedCall/sequential_4/transformer_block/sequential_1/dense_7/Tensordot/stack"], "attr": {"T": {"type": "DT_FLOAT"}, "Tshape": {"type": "DT_INT32"}}}, {"name": "StatefulPartitionedCall/sequential_4/transformer_block/sequential_1/dense_7/Tensordot/MatMul", "op": "MatMul", "input": ["StatefulPartitionedCall/sequential_4/transformer_block/sequential_1/dense_7/Tensordot/Reshape", "StatefulPartitionedCall/sequential_4/transformer_block/sequential_1/dense_7/Tensordot/ReadVariableOp"], "device": "/device:CPU:0", "attr": {"T": {"type": "DT_FLOAT"}, "transpose_a": {"b": false}, "transpose_b": {"b": false}}}, {"name": "StatefulPartitionedCall/sequential_4/transformer_block/sequential_1/dense_7/Tensordot", "op": "Reshape", "input": ["StatefulPartitionedCall/sequential_4/transformer_block/sequential_1/dense_7/Tensordot/MatMul", "StatefulPartitionedCall/sequential_4/transformer_block/sequential_1/dense_7/Tensordot/concat_1"], "attr": {"T": {"type": "DT_FLOAT"}, "Tshape": {"type": "DT_INT32"}}}, {"name": "StatefulPartitionedCall/sequential_4/transformer_block/sequential_1/dense_7/BiasAdd", "op": "BiasAdd", "input": ["StatefulPartitionedCall/sequential_4/transformer_block/sequential_1/dense_7/Tensordot", "StatefulPartitionedCall/sequential_4/transformer_block/sequential_1/dense_7/BiasAdd/ReadVariableOp"], "attr": {"data_format": {"s": "TkhXQw=="}, "T": {"type": "DT_FLOAT"}}}, {"name": "StatefulPartitionedCall/sequential_4/transformer_block/sequential_1/dense_7/Relu", "op": "Relu", "input": ["StatefulPartitionedCall/sequential_4/transformer_block/sequential_1/dense_7/BiasAdd"], "attr": {"T": {"type": "DT_FLOAT"}}}, {"name": "StatefulPartitionedCall/sequential_4/transformer_block/sequential_1/dense_8/Tensordot/Shape", "op": "Shape", "input": ["StatefulPartitionedCall/sequential_4/transformer_block/sequential_1/dense_7/Relu"], "attr": {"T": {"type": "DT_FLOAT"}, "out_type": {"type": "DT_INT32"}}}, {"name": "StatefulPartitionedCall/sequential_4/transformer_block/sequential_1/dense_8/Tensordot/GatherV2_1", "op": "GatherV2", "input": ["StatefulPartitionedCall/sequential_4/transformer_block/sequential_1/dense_8/Tensordot/Shape", "StatefulPartitionedCall/sequential_4/transformer_block/sequential_1/dense_8/Tensordot/axes", "StatefulPartitionedCall/sequential_4/transformer_block/sequential_1/dense_8/Tensordot/GatherV2_1/axis"], "attr": {"Taxis": {"type": "DT_INT32"}, "batch_dims": {"i": "0"}, "Tindices": {"type": "DT_INT32"}, "Tparams": {"type": "DT_INT32"}}}, {"name": "StatefulPartitionedCall/sequential_4/transformer_block/sequential_1/dense_8/Tensordot/GatherV2", "op": "GatherV2", "input": ["StatefulPartitionedCall/sequential_4/transformer_block/sequential_1/dense_8/Tensordot/Shape", "StatefulPartitionedCall/sequential_4/transformer_block/sequential_1/dense_8/Tensordot/free", "StatefulPartitionedCall/sequential_4/transformer_block/sequential_1/dense_8/Tensordot/GatherV2/axis"], "attr": {"batch_dims": {"i": "0"}, "Tindices": {"type": "DT_INT32"}, "Tparams": {"type": "DT_INT32"}, "Taxis": {"type": "DT_INT32"}}}, {"name": "StatefulPartitionedCall/sequential_4/transformer_block/sequential_1/dense_8/Tensordot/Prod_1", "op": "Prod", "input": ["StatefulPartitionedCall/sequential_4/transformer_block/sequential_1/dense_8/Tensordot/GatherV2_1", "StatefulPartitionedCall/sequential_4/transformer_block/sequential_1/dense_8/Tensordot/Const_1"], "attr": {"Tidx": {"type": "DT_INT32"}, "keep_dims": {"b": false}, "T": {"type": "DT_INT32"}}}, {"name": "StatefulPartitionedCall/sequential_4/transformer_block/sequential_1/dense_8/Tensordot/Prod", "op": "Prod", "input": ["StatefulPartitionedCall/sequential_4/transformer_block/sequential_1/dense_8/Tensordot/GatherV2", "StatefulPartitionedCall/sequential_4/transformer_block/sequential_1/dense_8/Tensordot/Const"], "attr": {"Tidx": {"type": "DT_INT32"}, "keep_dims": {"b": false}, "T": {"type": "DT_INT32"}}}, {"name": "StatefulPartitionedCall/sequential_4/transformer_block/sequential_1/dense_8/Tensordot/concat_1", "op": "ConcatV2", "input": ["StatefulPartitionedCall/sequential_4/transformer_block/sequential_1/dense_8/Tensordot/GatherV2", "StatefulPartitionedCall/sequential_4/transformer_block/sequential_1/dense_8/Tensordot/Const_2", "StatefulPartitionedCall/sequential_4/transformer_block/sequential_1/dense_8/Tensordot/concat_1/axis"], "attr": {"T": {"type": "DT_INT32"}, "N": {"i": "2"}, "Tidx": {"type": "DT_INT32"}}}, {"name": "StatefulPartitionedCall/sequential_4/transformer_block/sequential_1/dense_8/Tensordot/stack", "op": "Pack", "input": ["StatefulPartitionedCall/sequential_4/transformer_block/sequential_1/dense_8/Tensordot/Prod", "StatefulPartitionedCall/sequential_4/transformer_block/sequential_1/dense_8/Tensordot/Prod_1"], "attr": {"T": {"type": "DT_INT32"}, "axis": {"i": "0"}, "N": {"i": "2"}}}, {"name": "StatefulPartitionedCall/sequential_4/transformer_block/sequential_1/dense_8/Tensordot/Reshape", "op": "Reshape", "input": ["StatefulPartitionedCall/sequential_4/transformer_block/sequential_1/dense_7/Relu", "StatefulPartitionedCall/sequential_4/transformer_block/sequential_1/dense_8/Tensordot/stack"], "attr": {"Tshape": {"type": "DT_INT32"}, "T": {"type": "DT_FLOAT"}}}, {"name": "StatefulPartitionedCall/sequential_4/transformer_block/sequential_1/dense_8/Tensordot/MatMul", "op": "MatMul", "input": ["StatefulPartitionedCall/sequential_4/transformer_block/sequential_1/dense_8/Tensordot/Reshape", "StatefulPartitionedCall/sequential_4/transformer_block/sequential_1/dense_8/Tensordot/ReadVariableOp"], "device": "/device:CPU:0", "attr": {"T": {"type": "DT_FLOAT"}, "transpose_a": {"b": false}, "transpose_b": {"b": false}}}, {"name": "StatefulPartitionedCall/sequential_4/transformer_block/sequential_1/dense_8/Tensordot", "op": "Reshape", "input": ["StatefulPartitionedCall/sequential_4/transformer_block/sequential_1/dense_8/Tensordot/MatMul", "StatefulPartitionedCall/sequential_4/transformer_block/sequential_1/dense_8/Tensordot/concat_1"], "attr": {"T": {"type": "DT_FLOAT"}, "Tshape": {"type": "DT_INT32"}}}, {"name": "StatefulPartitionedCall/sequential_4/transformer_block/sequential_1/dense_8/BiasAdd", "op": "BiasAdd", "input": ["StatefulPartitionedCall/sequential_4/transformer_block/sequential_1/dense_8/Tensordot", "StatefulPartitionedCall/sequential_4/transformer_block/sequential_1/dense_8/BiasAdd/ReadVariableOp"], "attr": {"T": {"type": "DT_FLOAT"}, "data_format": {"s": "TkhXQw=="}}}, {"name": "StatefulPartitionedCall/sequential_4/transformer_block/add_1", "op": "AddV2", "input": ["StatefulPartitionedCall/sequential_4/transformer_block/layer_normalization/batchnorm/add_1", "StatefulPartitionedCall/sequential_4/transformer_block/sequential_1/dense_8/BiasAdd"], "attr": {"T": {"type": "DT_FLOAT"}}}, {"name": "StatefulPartitionedCall/sequential_4/transformer_block/layer_normalization_1/moments/mean", "op": "Mean", "input": ["StatefulPartitionedCall/sequential_4/transformer_block/add_1", "StatefulPartitionedCall/sequential_4/transformer_block/layer_normalization_1/moments/mean/reduction_indices"], "attr": {"Tidx": {"type": "DT_INT32"}, "keep_dims": {"b": true}, "T": {"type": "DT_FLOAT"}}}, {"name": "StatefulPartitionedCall/sequential_4/transformer_block/layer_normalization_1/moments/SquaredDifference", "op": "SquaredDifference", "input": ["StatefulPartitionedCall/sequential_4/transformer_block/add_1", "StatefulPartitionedCall/sequential_4/transformer_block/layer_normalization_1/moments/mean"], "attr": {"T": {"type": "DT_FLOAT"}}}, {"name": "StatefulPartitionedCall/sequential_4/transformer_block/layer_normalization_1/moments/variance", "op": "Mean", "input": ["StatefulPartitionedCall/sequential_4/transformer_block/layer_normalization_1/moments/SquaredDifference", "StatefulPartitionedCall/sequential_4/transformer_block/layer_normalization_1/moments/variance/reduction_indices"], "attr": {"Tidx": {"type": "DT_INT32"}, "keep_dims": {"b": true}, "T": {"type": "DT_FLOAT"}}}, {"name": "StatefulPartitionedCall/sequential_4/transformer_block/layer_normalization_1/batchnorm/add", "op": "AddV2", "input": ["StatefulPartitionedCall/sequential_4/transformer_block/layer_normalization_1/moments/variance", "StatefulPartitionedCall/sequential_4/transformer_block/layer_normalization_1/batchnorm/add/y"], "attr": {"T": {"type": "DT_FLOAT"}}}, {"name": "StatefulPartitionedCall/sequential_4/transformer_block/layer_normalization_1/batchnorm/Rsqrt", "op": "Rsqrt", "input": ["StatefulPartitionedCall/sequential_4/transformer_block/layer_normalization_1/batchnorm/add"], "attr": {"T": {"type": "DT_FLOAT"}}}, {"name": "StatefulPartitionedCall/sequential_4/transformer_block/layer_normalization_1/batchnorm/mul", "op": "Mul", "input": ["StatefulPartitionedCall/sequential_4/transformer_block/layer_normalization_1/batchnorm/Rsqrt", "StatefulPartitionedCall/sequential_4/transformer_block/layer_normalization_1/batchnorm/mul/ReadVariableOp"], "attr": {"T": {"type": "DT_FLOAT"}}}, {"name": "StatefulPartitionedCall/sequential_4/transformer_block/layer_normalization_1/batchnorm/mul_2", "op": "Mul", "input": ["StatefulPartitionedCall/sequential_4/transformer_block/layer_normalization_1/moments/mean", "StatefulPartitionedCall/sequential_4/transformer_block/layer_normalization_1/batchnorm/mul"], "attr": {"T": {"type": "DT_FLOAT"}}}, {"name": "StatefulPartitionedCall/sequential_4/transformer_block/layer_normalization_1/batchnorm/mul_1", "op": "Mul", "input": ["StatefulPartitionedCall/sequential_4/transformer_block/add_1", "StatefulPartitionedCall/sequential_4/transformer_block/layer_normalization_1/batchnorm/mul"], "attr": {"T": {"type": "DT_FLOAT"}}}, {"name": "StatefulPartitionedCall/sequential_4/transformer_block/layer_normalization_1/batchnorm/sub", "op": "Sub", "input": ["StatefulPartitionedCall/sequential_4/transformer_block/layer_normalization_1/batchnorm/ReadVariableOp", "StatefulPartitionedCall/sequential_4/transformer_block/layer_normalization_1/batchnorm/mul_2"], "attr": {"T": {"type": "DT_FLOAT"}}}, {"name": "StatefulPartitionedCall/sequential_4/transformer_block/layer_normalization_1/batchnorm/add_1", "op": "AddV2", "input": ["StatefulPartitionedCall/sequential_4/transformer_block/layer_normalization_1/batchnorm/mul_1", "StatefulPartitionedCall/sequential_4/transformer_block/layer_normalization_1/batchnorm/sub"], "attr": {"T": {"type": "DT_FLOAT"}}}, {"name": "StatefulPartitionedCall/sequential_4/transformer_block_1/dense_9/Tensordot/Shape", "op": "Shape", "input": ["StatefulPartitionedCall/sequential_4/transformer_block/layer_normalization_1/batchnorm/add_1"], "attr": {"T": {"type": "DT_FLOAT"}, "out_type": {"type": "DT_INT32"}}}, {"name": "StatefulPartitionedCall/sequential_4/transformer_block_1/dense_11/Tensordot/Shape", "op": "Shape", "input": ["StatefulPartitionedCall/sequential_4/transformer_block/layer_normalization_1/batchnorm/add_1"], "attr": {"out_type": {"type": "DT_INT32"}, "T": {"type": "DT_FLOAT"}}}, {"name": "StatefulPartitionedCall/sequential_4/transformer_block_1/dense_10/Tensordot/Shape", "op": "Shape", "input": ["StatefulPartitionedCall/sequential_4/transformer_block/layer_normalization_1/batchnorm/add_1"], "attr": {"T": {"type": "DT_FLOAT"}, "out_type": {"type": "DT_INT32"}}}, {"name": "StatefulPartitionedCall/sequential_4/transformer_block_1/dense_9/Tensordot/GatherV2", "op": "GatherV2", "input": ["StatefulPartitionedCall/sequential_4/transformer_block_1/dense_9/Tensordot/Shape", "StatefulPartitionedCall/sequential_4/transformer_block_1/dense_9/Tensordot/free", "StatefulPartitionedCall/sequential_4/transformer_block_1/dense_9/Tensordot/GatherV2/axis"], "attr": {"batch_dims": {"i": "0"}, "Tindices": {"type": "DT_INT32"}, "Tparams": {"type": "DT_INT32"}, "Taxis": {"type": "DT_INT32"}}}, {"name": "StatefulPartitionedCall/sequential_4/transformer_block_1/dense_9/Tensordot/GatherV2_1", "op": "GatherV2", "input": ["StatefulPartitionedCall/sequential_4/transformer_block_1/dense_9/Tensordot/Shape", "StatefulPartitionedCall/sequential_4/transformer_block_1/dense_9/Tensordot/axes", "StatefulPartitionedCall/sequential_4/transformer_block_1/dense_9/Tensordot/GatherV2_1/axis"], "attr": {"Taxis": {"type": "DT_INT32"}, "batch_dims": {"i": "0"}, "Tindices": {"type": "DT_INT32"}, "Tparams": {"type": "DT_INT32"}}}, {"name": "StatefulPartitionedCall/sequential_4/transformer_block_1/dense_11/Tensordot/GatherV2", "op": "GatherV2", "input": ["StatefulPartitionedCall/sequential_4/transformer_block_1/dense_11/Tensordot/Shape", "StatefulPartitionedCall/sequential_4/transformer_block_1/dense_11/Tensordot/free", "StatefulPartitionedCall/sequential_4/transformer_block_1/dense_11/Tensordot/GatherV2/axis"], "attr": {"batch_dims": {"i": "0"}, "Tindices": {"type": "DT_INT32"}, "Tparams": {"type": "DT_INT32"}, "Taxis": {"type": "DT_INT32"}}}, {"name": "StatefulPartitionedCall/sequential_4/transformer_block_1/dense_11/Tensordot/GatherV2_1", "op": "GatherV2", "input": ["StatefulPartitionedCall/sequential_4/transformer_block_1/dense_11/Tensordot/Shape", "StatefulPartitionedCall/sequential_4/transformer_block_1/dense_11/Tensordot/axes", "StatefulPartitionedCall/sequential_4/transformer_block_1/dense_11/Tensordot/GatherV2_1/axis"], "attr": {"Taxis": {"type": "DT_INT32"}, "batch_dims": {"i": "0"}, "Tindices": {"type": "DT_INT32"}, "Tparams": {"type": "DT_INT32"}}}, {"name": "StatefulPartitionedCall/sequential_4/transformer_block_1/dense_10/Tensordot/GatherV2", "op": "GatherV2", "input": ["StatefulPartitionedCall/sequential_4/transformer_block_1/dense_10/Tensordot/Shape", "StatefulPartitionedCall/sequential_4/transformer_block_1/dense_10/Tensordot/free", "StatefulPartitionedCall/sequential_4/transformer_block_1/dense_10/Tensordot/GatherV2/axis"], "attr": {"Taxis": {"type": "DT_INT32"}, "batch_dims": {"i": "0"}, "Tindices": {"type": "DT_INT32"}, "Tparams": {"type": "DT_INT32"}}}, {"name": "StatefulPartitionedCall/sequential_4/transformer_block_1/dense_10/Tensordot/GatherV2_1", "op": "GatherV2", "input": ["StatefulPartitionedCall/sequential_4/transformer_block_1/dense_10/Tensordot/Shape", "StatefulPartitionedCall/sequential_4/transformer_block_1/dense_10/Tensordot/axes", "StatefulPartitionedCall/sequential_4/transformer_block_1/dense_10/Tensordot/GatherV2_1/axis"], "attr": {"Tparams": {"type": "DT_INT32"}, "Taxis": {"type": "DT_INT32"}, "batch_dims": {"i": "0"}, "Tindices": {"type": "DT_INT32"}}}, {"name": "StatefulPartitionedCall/sequential_4/transformer_block_1/dense_9/Tensordot/Prod", "op": "Prod", "input": ["StatefulPartitionedCall/sequential_4/transformer_block_1/dense_9/Tensordot/GatherV2", "StatefulPartitionedCall/sequential_4/transformer_block_1/dense_9/Tensordot/Const"], "attr": {"Tidx": {"type": "DT_INT32"}, "keep_dims": {"b": false}, "T": {"type": "DT_INT32"}}}, {"name": "StatefulPartitionedCall/sequential_4/transformer_block_1/dense_9/Tensordot/Prod_1", "op": "Prod", "input": ["StatefulPartitionedCall/sequential_4/transformer_block_1/dense_9/Tensordot/GatherV2_1", "StatefulPartitionedCall/sequential_4/transformer_block_1/dense_9/Tensordot/Const_1"], "attr": {"Tidx": {"type": "DT_INT32"}, "keep_dims": {"b": false}, "T": {"type": "DT_INT32"}}}, {"name": "StatefulPartitionedCall/sequential_4/transformer_block_1/dense_11/Tensordot/Prod", "op": "Prod", "input": ["StatefulPartitionedCall/sequential_4/transformer_block_1/dense_11/Tensordot/GatherV2", "StatefulPartitionedCall/sequential_4/transformer_block_1/dense_11/Tensordot/Const"], "attr": {"T": {"type": "DT_INT32"}, "Tidx": {"type": "DT_INT32"}, "keep_dims": {"b": false}}}, {"name": "StatefulPartitionedCall/sequential_4/transformer_block_1/dense_11/Tensordot/Prod_1", "op": "Prod", "input": ["StatefulPartitionedCall/sequential_4/transformer_block_1/dense_11/Tensordot/GatherV2_1", "StatefulPartitionedCall/sequential_4/transformer_block_1/dense_11/Tensordot/Const_1"], "attr": {"T": {"type": "DT_INT32"}, "Tidx": {"type": "DT_INT32"}, "keep_dims": {"b": false}}}, {"name": "StatefulPartitionedCall/sequential_4/transformer_block_1/dense_10/Tensordot/Prod", "op": "Prod", "input": ["StatefulPartitionedCall/sequential_4/transformer_block_1/dense_10/Tensordot/GatherV2", "StatefulPartitionedCall/sequential_4/transformer_block_1/dense_10/Tensordot/Const"], "attr": {"Tidx": {"type": "DT_INT32"}, "keep_dims": {"b": false}, "T": {"type": "DT_INT32"}}}, {"name": "StatefulPartitionedCall/sequential_4/transformer_block_1/dense_10/Tensordot/Prod_1", "op": "Prod", "input": ["StatefulPartitionedCall/sequential_4/transformer_block_1/dense_10/Tensordot/GatherV2_1", "StatefulPartitionedCall/sequential_4/transformer_block_1/dense_10/Tensordot/Const_1"], "attr": {"Tidx": {"type": "DT_INT32"}, "keep_dims": {"b": false}, "T": {"type": "DT_INT32"}}}, {"name": "StatefulPartitionedCall/sequential_4/transformer_block_1/dense_9/Tensordot/stack", "op": "Pack", "input": ["StatefulPartitionedCall/sequential_4/transformer_block_1/dense_9/Tensordot/Prod", "StatefulPartitionedCall/sequential_4/transformer_block_1/dense_9/Tensordot/Prod_1"], "attr": {"T": {"type": "DT_INT32"}, "axis": {"i": "0"}, "N": {"i": "2"}}}, {"name": "StatefulPartitionedCall/sequential_4/transformer_block_1/dense_11/Tensordot/stack", "op": "Pack", "input": ["StatefulPartitionedCall/sequential_4/transformer_block_1/dense_11/Tensordot/Prod", "StatefulPartitionedCall/sequential_4/transformer_block_1/dense_11/Tensordot/Prod_1"], "attr": {"axis": {"i": "0"}, "N": {"i": "2"}, "T": {"type": "DT_INT32"}}}, {"name": "StatefulPartitionedCall/sequential_4/transformer_block_1/dense_10/Tensordot/stack", "op": "Pack", "input": ["StatefulPartitionedCall/sequential_4/transformer_block_1/dense_10/Tensordot/Prod", "StatefulPartitionedCall/sequential_4/transformer_block_1/dense_10/Tensordot/Prod_1"], "attr": {"axis": {"i": "0"}, "N": {"i": "2"}, "T": {"type": "DT_INT32"}}}, {"name": "StatefulPartitionedCall/sequential_4/transformer_block_1/dense_9/Tensordot/Reshape", "op": "Reshape", "input": ["StatefulPartitionedCall/sequential_4/transformer_block/layer_normalization_1/batchnorm/add_1", "StatefulPartitionedCall/sequential_4/transformer_block_1/dense_9/Tensordot/stack"], "attr": {"T": {"type": "DT_FLOAT"}, "Tshape": {"type": "DT_INT32"}}}, {"name": "StatefulPartitionedCall/sequential_4/transformer_block_1/dense_11/Tensordot/Reshape", "op": "Reshape", "input": ["StatefulPartitionedCall/sequential_4/transformer_block/layer_normalization_1/batchnorm/add_1", "StatefulPartitionedCall/sequential_4/transformer_block_1/dense_11/Tensordot/stack"], "attr": {"T": {"type": "DT_FLOAT"}, "Tshape": {"type": "DT_INT32"}}}, {"name": "StatefulPartitionedCall/sequential_4/transformer_block_1/dense_10/Tensordot/Reshape", "op": "Reshape", "input": ["StatefulPartitionedCall/sequential_4/transformer_block/layer_normalization_1/batchnorm/add_1", "StatefulPartitionedCall/sequential_4/transformer_block_1/dense_10/Tensordot/stack"], "attr": {"T": {"type": "DT_FLOAT"}, "Tshape": {"type": "DT_INT32"}}}, {"name": "StatefulPartitionedCall/sequential_4/transformer_block_1/dense_9/Tensordot/MatMul", "op": "MatMul", "input": ["StatefulPartitionedCall/sequential_4/transformer_block_1/dense_9/Tensordot/Reshape", "StatefulPartitionedCall/sequential_4/transformer_block_1/dense_9/Tensordot/ReadVariableOp"], "device": "/device:CPU:0", "attr": {"T": {"type": "DT_FLOAT"}, "transpose_a": {"b": false}, "transpose_b": {"b": false}}}, {"name": "StatefulPartitionedCall/sequential_4/transformer_block_1/dense_11/Tensordot/MatMul", "op": "MatMul", "input": ["StatefulPartitionedCall/sequential_4/transformer_block_1/dense_11/Tensordot/Reshape", "StatefulPartitionedCall/sequential_4/transformer_block_1/dense_11/Tensordot/ReadVariableOp"], "device": "/device:CPU:0", "attr": {"transpose_b": {"b": false}, "T": {"type": "DT_FLOAT"}, "transpose_a": {"b": false}}}, {"name": "StatefulPartitionedCall/sequential_4/transformer_block_1/dense_10/Tensordot/MatMul", "op": "MatMul", "input": ["StatefulPartitionedCall/sequential_4/transformer_block_1/dense_10/Tensordot/Reshape", "StatefulPartitionedCall/sequential_4/transformer_block_1/dense_10/Tensordot/ReadVariableOp"], "device": "/device:CPU:0", "attr": {"T": {"type": "DT_FLOAT"}, "transpose_a": {"b": false}, "transpose_b": {"b": false}}}, {"name": "StatefulPartitionedCall/sequential_4/transformer_block_1/Reshape", "op": "Reshape", "input": ["StatefulPartitionedCall/sequential_4/transformer_block_1/dense_9/Tensordot/MatMul", "StatefulPartitionedCall/sequential_4/transformer_block_1/Reshape/shape"], "attr": {"T": {"type": "DT_FLOAT"}, "Tshape": {"type": "DT_INT32"}}}, {"name": "StatefulPartitionedCall/sequential_4/transformer_block_1/Reshape_2", "op": "Reshape", "input": ["StatefulPartitionedCall/sequential_4/transformer_block_1/dense_11/Tensordot/MatMul", "StatefulPartitionedCall/sequential_4/transformer_block_1/Reshape_2/shape"], "attr": {"T": {"type": "DT_FLOAT"}, "Tshape": {"type": "DT_INT32"}}}, {"name": "StatefulPartitionedCall/sequential_4/transformer_block_1/Reshape_1", "op": "Reshape", "input": ["StatefulPartitionedCall/sequential_4/transformer_block_1/dense_10/Tensordot/MatMul", "StatefulPartitionedCall/sequential_4/transformer_block_1/Reshape_1/shape"], "attr": {"T": {"type": "DT_FLOAT"}, "Tshape": {"type": "DT_INT32"}}}, {"name": "StatefulPartitionedCall/sequential_4/transformer_block_1/transpose", "op": "Transpose", "input": ["StatefulPartitionedCall/sequential_4/transformer_block_1/Reshape", "StatefulPartitionedCall/sequential_4/transformer_block_1/transpose/perm"], "attr": {"Tperm": {"type": "DT_INT32"}, "T": {"type": "DT_FLOAT"}}}, {"name": "StatefulPartitionedCall/sequential_4/transformer_block_1/transpose_1", "op": "Transpose", "input": ["StatefulPartitionedCall/sequential_4/transformer_block_1/Reshape_2", "StatefulPartitionedCall/sequential_4/transformer_block_1/transpose_1/perm"], "attr": {"T": {"type": "DT_FLOAT"}, "Tperm": {"type": "DT_INT32"}}}, {"name": "StatefulPartitionedCall/sequential_4/transformer_block_1/transpose_2", "op": "Transpose", "input": ["StatefulPartitionedCall/sequential_4/transformer_block_1/Reshape_1", "StatefulPartitionedCall/sequential_4/transformer_block_1/transpose_2/perm"], "attr": {"T": {"type": "DT_FLOAT"}, "Tperm": {"type": "DT_INT32"}}}, {"name": "StatefulPartitionedCall/sequential_4/transformer_block_1/matmul", "op": "BatchMatMulV2", "input": ["StatefulPartitionedCall/sequential_4/transformer_block_1/transpose", "StatefulPartitionedCall/sequential_4/transformer_block_1/transpose_1"], "attr": {"adj_x": {"b": false}, "adj_y": {"b": false}, "T": {"type": "DT_FLOAT"}}}, {"name": "StatefulPartitionedCall/sequential_4/transformer_block_1/truediv", "op": "Mul", "input": ["StatefulPartitionedCall/sequential_4/transformer_block_1/matmul", "ConstantFolding/StatefulPartitionedCall/sequential_4/transformer_block_1/truediv_recip"], "attr": {"T": {"type": "DT_FLOAT"}}}, {"name": "StatefulPartitionedCall/sequential_4/transformer_block_1/Softmax", "op": "Softmax", "input": ["StatefulPartitionedCall/sequential_4/transformer_block_1/truediv"], "attr": {"T": {"type": "DT_FLOAT"}}}, {"name": "StatefulPartitionedCall/sequential_4/transformer_block_1/matmul_1", "op": "BatchMatMulV2", "input": ["StatefulPartitionedCall/sequential_4/transformer_block_1/Softmax", "StatefulPartitionedCall/sequential_4/transformer_block_1/transpose_2"], "attr": {"adj_x": {"b": false}, "adj_y": {"b": false}, "T": {"type": "DT_FLOAT"}}}, {"name": "StatefulPartitionedCall/sequential_4/transformer_block_1/transpose_3", "op": "Transpose", "input": ["StatefulPartitionedCall/sequential_4/transformer_block_1/matmul_1", "StatefulPartitionedCall/sequential_4/transformer_block_1/transpose_3/perm"], "attr": {"T": {"type": "DT_FLOAT"}, "Tperm": {"type": "DT_INT32"}}}, {"name": "StatefulPartitionedCall/sequential_4/transformer_block_1/Reshape_3", "op": "Reshape", "input": ["StatefulPartitionedCall/sequential_4/transformer_block_1/transpose_3", "StatefulPartitionedCall/sequential_4/transformer_block_1/Reshape_3/shape"], "attr": {"T": {"type": "DT_FLOAT"}, "Tshape": {"type": "DT_INT32"}}}, {"name": "StatefulPartitionedCall/sequential_4/transformer_block_1/dense_12/Tensordot/Shape", "op": "Shape", "input": ["StatefulPartitionedCall/sequential_4/transformer_block_1/Reshape_3"], "attr": {"T": {"type": "DT_FLOAT"}, "out_type": {"type": "DT_INT32"}}}, {"name": "StatefulPartitionedCall/sequential_4/transformer_block_1/dense_12/Tensordot/GatherV2_1", "op": "GatherV2", "input": ["StatefulPartitionedCall/sequential_4/transformer_block_1/dense_12/Tensordot/Shape", "StatefulPartitionedCall/sequential_4/transformer_block_1/dense_12/Tensordot/axes", "StatefulPartitionedCall/sequential_4/transformer_block_1/dense_12/Tensordot/GatherV2_1/axis"], "attr": {"Taxis": {"type": "DT_INT32"}, "batch_dims": {"i": "0"}, "Tindices": {"type": "DT_INT32"}, "Tparams": {"type": "DT_INT32"}}}, {"name": "StatefulPartitionedCall/sequential_4/transformer_block_1/dense_12/Tensordot/GatherV2", "op": "GatherV2", "input": ["StatefulPartitionedCall/sequential_4/transformer_block_1/dense_12/Tensordot/Shape", "StatefulPartitionedCall/sequential_4/transformer_block_1/dense_12/Tensordot/free", "StatefulPartitionedCall/sequential_4/transformer_block_1/dense_12/Tensordot/GatherV2/axis"], "attr": {"Tparams": {"type": "DT_INT32"}, "Taxis": {"type": "DT_INT32"}, "batch_dims": {"i": "0"}, "Tindices": {"type": "DT_INT32"}}}, {"name": "StatefulPartitionedCall/sequential_4/transformer_block_1/dense_12/Tensordot/Prod_1", "op": "Prod", "input": ["StatefulPartitionedCall/sequential_4/transformer_block_1/dense_12/Tensordot/GatherV2_1", "StatefulPartitionedCall/sequential_4/transformer_block_1/dense_12/Tensordot/Const_1"], "attr": {"Tidx": {"type": "DT_INT32"}, "keep_dims": {"b": false}, "T": {"type": "DT_INT32"}}}, {"name": "StatefulPartitionedCall/sequential_4/transformer_block_1/dense_12/Tensordot/Prod", "op": "Prod", "input": ["StatefulPartitionedCall/sequential_4/transformer_block_1/dense_12/Tensordot/GatherV2", "StatefulPartitionedCall/sequential_4/transformer_block_1/dense_12/Tensordot/Const"], "attr": {"Tidx": {"type": "DT_INT32"}, "keep_dims": {"b": false}, "T": {"type": "DT_INT32"}}}, {"name": "StatefulPartitionedCall/sequential_4/transformer_block_1/dense_12/Tensordot/concat_1", "op": "ConcatV2", "input": ["StatefulPartitionedCall/sequential_4/transformer_block_1/dense_12/Tensordot/GatherV2", "StatefulPartitionedCall/sequential_4/transformer_block_1/dense_12/Tensordot/Const_2", "StatefulPartitionedCall/sequential_4/transformer_block_1/dense_12/Tensordot/concat_1/axis"], "attr": {"T": {"type": "DT_INT32"}, "N": {"i": "2"}, "Tidx": {"type": "DT_INT32"}}}, {"name": "StatefulPartitionedCall/sequential_4/transformer_block_1/dense_12/Tensordot/stack", "op": "Pack", "input": ["StatefulPartitionedCall/sequential_4/transformer_block_1/dense_12/Tensordot/Prod", "StatefulPartitionedCall/sequential_4/transformer_block_1/dense_12/Tensordot/Prod_1"], "attr": {"T": {"type": "DT_INT32"}, "axis": {"i": "0"}, "N": {"i": "2"}}}, {"name": "StatefulPartitionedCall/sequential_4/transformer_block_1/dense_12/Tensordot/Reshape", "op": "Reshape", "input": ["StatefulPartitionedCall/sequential_4/transformer_block_1/transpose_3", "StatefulPartitionedCall/sequential_4/transformer_block_1/dense_12/Tensordot/stack"], "attr": {"T": {"type": "DT_FLOAT"}, "Tshape": {"type": "DT_INT32"}}}, {"name": "StatefulPartitionedCall/sequential_4/transformer_block_1/dense_12/Tensordot/MatMul", "op": "MatMul", "input": ["StatefulPartitionedCall/sequential_4/transformer_block_1/dense_12/Tensordot/Reshape", "StatefulPartitionedCall/sequential_4/transformer_block_1/dense_12/Tensordot/ReadVariableOp"], "device": "/device:CPU:0", "attr": {"T": {"type": "DT_FLOAT"}, "transpose_a": {"b": false}, "transpose_b": {"b": false}}}, {"name": "StatefulPartitionedCall/sequential_4/transformer_block_1/dense_12/Tensordot", "op": "Reshape", "input": ["StatefulPartitionedCall/sequential_4/transformer_block_1/dense_12/Tensordot/MatMul", "StatefulPartitionedCall/sequential_4/transformer_block_1/dense_12/Tensordot/concat_1"], "attr": {"T": {"type": "DT_FLOAT"}, "Tshape": {"type": "DT_INT32"}}}, {"name": "StatefulPartitionedCall/sequential_4/transformer_block_1/add", "op": "AddV2", "input": ["StatefulPartitionedCall/sequential_4/transformer_block/layer_normalization_1/batchnorm/add_1", "StatefulPartitionedCall/sequential_4/transformer_block_1/dense_12/Tensordot"], "attr": {"T": {"type": "DT_FLOAT"}}}, {"name": "StatefulPartitionedCall/sequential_4/transformer_block_1/layer_normalization_2/moments/mean", "op": "Mean", "input": ["StatefulPartitionedCall/sequential_4/transformer_block_1/add", "StatefulPartitionedCall/sequential_4/transformer_block_1/layer_normalization_2/moments/mean/reduction_indices"], "attr": {"T": {"type": "DT_FLOAT"}, "Tidx": {"type": "DT_INT32"}, "keep_dims": {"b": true}}}, {"name": "StatefulPartitionedCall/sequential_4/transformer_block_1/layer_normalization_2/moments/SquaredDifference", "op": "SquaredDifference", "input": ["StatefulPartitionedCall/sequential_4/transformer_block_1/add", "StatefulPartitionedCall/sequential_4/transformer_block_1/layer_normalization_2/moments/mean"], "attr": {"T": {"type": "DT_FLOAT"}}}, {"name": "StatefulPartitionedCall/sequential_4/transformer_block_1/layer_normalization_2/moments/variance", "op": "Mean", "input": ["StatefulPartitionedCall/sequential_4/transformer_block_1/layer_normalization_2/moments/SquaredDifference", "StatefulPartitionedCall/sequential_4/transformer_block_1/layer_normalization_2/moments/variance/reduction_indices"], "attr": {"Tidx": {"type": "DT_INT32"}, "keep_dims": {"b": true}, "T": {"type": "DT_FLOAT"}}}, {"name": "StatefulPartitionedCall/sequential_4/transformer_block_1/layer_normalization_2/batchnorm/add", "op": "AddV2", "input": ["StatefulPartitionedCall/sequential_4/transformer_block_1/layer_normalization_2/moments/variance", "StatefulPartitionedCall/sequential_4/transformer_block_1/layer_normalization_2/batchnorm/add/y"], "attr": {"T": {"type": "DT_FLOAT"}}}, {"name": "StatefulPartitionedCall/sequential_4/transformer_block_1/layer_normalization_2/batchnorm/Rsqrt", "op": "Rsqrt", "input": ["StatefulPartitionedCall/sequential_4/transformer_block_1/layer_normalization_2/batchnorm/add"], "attr": {"T": {"type": "DT_FLOAT"}}}, {"name": "StatefulPartitionedCall/sequential_4/transformer_block_1/layer_normalization_2/batchnorm/mul", "op": "Mul", "input": ["StatefulPartitionedCall/sequential_4/transformer_block_1/layer_normalization_2/batchnorm/Rsqrt", "StatefulPartitionedCall/sequential_4/transformer_block_1/layer_normalization_2/batchnorm/mul/ReadVariableOp"], "attr": {"T": {"type": "DT_FLOAT"}}}, {"name": "StatefulPartitionedCall/sequential_4/transformer_block_1/layer_normalization_2/batchnorm/mul_2", "op": "Mul", "input": ["StatefulPartitionedCall/sequential_4/transformer_block_1/layer_normalization_2/moments/mean", "StatefulPartitionedCall/sequential_4/transformer_block_1/layer_normalization_2/batchnorm/mul"], "attr": {"T": {"type": "DT_FLOAT"}}}, {"name": "StatefulPartitionedCall/sequential_4/transformer_block_1/layer_normalization_2/batchnorm/mul_1", "op": "Mul", "input": ["StatefulPartitionedCall/sequential_4/transformer_block_1/add", "StatefulPartitionedCall/sequential_4/transformer_block_1/layer_normalization_2/batchnorm/mul"], "attr": {"T": {"type": "DT_FLOAT"}}}, {"name": "StatefulPartitionedCall/sequential_4/transformer_block_1/layer_normalization_2/batchnorm/sub", "op": "Sub", "input": ["StatefulPartitionedCall/sequential_4/transformer_block_1/layer_normalization_2/batchnorm/ReadVariableOp", "StatefulPartitionedCall/sequential_4/transformer_block_1/layer_normalization_2/batchnorm/mul_2"], "attr": {"T": {"type": "DT_FLOAT"}}}, {"name": "StatefulPartitionedCall/sequential_4/transformer_block_1/layer_normalization_2/batchnorm/add_1", "op": "AddV2", "input": ["StatefulPartitionedCall/sequential_4/transformer_block_1/layer_normalization_2/batchnorm/mul_1", "StatefulPartitionedCall/sequential_4/transformer_block_1/layer_normalization_2/batchnorm/sub"], "attr": {"T": {"type": "DT_FLOAT"}}}, {"name": "StatefulPartitionedCall/sequential_4/transformer_block_1/sequential_2/dense_13/Tensordot/Shape", "op": "Shape", "input": ["StatefulPartitionedCall/sequential_4/transformer_block_1/layer_normalization_2/batchnorm/add_1"], "attr": {"T": {"type": "DT_FLOAT"}, "out_type": {"type": "DT_INT32"}}}, {"name": "StatefulPartitionedCall/sequential_4/transformer_block_1/sequential_2/dense_13/Tensordot/GatherV2_1", "op": "GatherV2", "input": ["StatefulPartitionedCall/sequential_4/transformer_block_1/sequential_2/dense_13/Tensordot/Shape", "StatefulPartitionedCall/sequential_4/transformer_block_1/sequential_2/dense_13/Tensordot/axes", "StatefulPartitionedCall/sequential_4/transformer_block_1/sequential_2/dense_13/Tensordot/GatherV2_1/axis"], "attr": {"Taxis": {"type": "DT_INT32"}, "batch_dims": {"i": "0"}, "Tindices": {"type": "DT_INT32"}, "Tparams": {"type": "DT_INT32"}}}, {"name": "StatefulPartitionedCall/sequential_4/transformer_block_1/sequential_2/dense_13/Tensordot/GatherV2", "op": "GatherV2", "input": ["StatefulPartitionedCall/sequential_4/transformer_block_1/sequential_2/dense_13/Tensordot/Shape", "StatefulPartitionedCall/sequential_4/transformer_block_1/sequential_2/dense_13/Tensordot/free", "StatefulPartitionedCall/sequential_4/transformer_block_1/sequential_2/dense_13/Tensordot/GatherV2/axis"], "attr": {"batch_dims": {"i": "0"}, "Tindices": {"type": "DT_INT32"}, "Tparams": {"type": "DT_INT32"}, "Taxis": {"type": "DT_INT32"}}}, {"name": "StatefulPartitionedCall/sequential_4/transformer_block_1/sequential_2/dense_13/Tensordot/Prod_1", "op": "Prod", "input": ["StatefulPartitionedCall/sequential_4/transformer_block_1/sequential_2/dense_13/Tensordot/GatherV2_1", "StatefulPartitionedCall/sequential_4/transformer_block_1/sequential_2/dense_13/Tensordot/Const_1"], "attr": {"Tidx": {"type": "DT_INT32"}, "keep_dims": {"b": false}, "T": {"type": "DT_INT32"}}}, {"name": "StatefulPartitionedCall/sequential_4/transformer_block_1/sequential_2/dense_13/Tensordot/Prod", "op": "Prod", "input": ["StatefulPartitionedCall/sequential_4/transformer_block_1/sequential_2/dense_13/Tensordot/GatherV2", "StatefulPartitionedCall/sequential_4/transformer_block_1/sequential_2/dense_13/Tensordot/Const"], "attr": {"Tidx": {"type": "DT_INT32"}, "keep_dims": {"b": false}, "T": {"type": "DT_INT32"}}}, {"name": "StatefulPartitionedCall/sequential_4/transformer_block_1/sequential_2/dense_13/Tensordot/concat_1", "op": "ConcatV2", "input": ["StatefulPartitionedCall/sequential_4/transformer_block_1/sequential_2/dense_13/Tensordot/GatherV2", "StatefulPartitionedCall/sequential_4/transformer_block_1/sequential_2/dense_13/Tensordot/Const_2", "StatefulPartitionedCall/sequential_4/transformer_block_1/sequential_2/dense_13/Tensordot/concat_1/axis"], "attr": {"N": {"i": "2"}, "Tidx": {"type": "DT_INT32"}, "T": {"type": "DT_INT32"}}}, {"name": "StatefulPartitionedCall/sequential_4/transformer_block_1/sequential_2/dense_13/Tensordot/stack", "op": "Pack", "input": ["StatefulPartitionedCall/sequential_4/transformer_block_1/sequential_2/dense_13/Tensordot/Prod", "StatefulPartitionedCall/sequential_4/transformer_block_1/sequential_2/dense_13/Tensordot/Prod_1"], "attr": {"axis": {"i": "0"}, "N": {"i": "2"}, "T": {"type": "DT_INT32"}}}, {"name": "StatefulPartitionedCall/sequential_4/transformer_block_1/sequential_2/dense_13/Tensordot/Reshape", "op": "Reshape", "input": ["StatefulPartitionedCall/sequential_4/transformer_block_1/layer_normalization_2/batchnorm/add_1", "StatefulPartitionedCall/sequential_4/transformer_block_1/sequential_2/dense_13/Tensordot/stack"], "attr": {"T": {"type": "DT_FLOAT"}, "Tshape": {"type": "DT_INT32"}}}, {"name": "StatefulPartitionedCall/sequential_4/transformer_block_1/sequential_2/dense_13/Tensordot/MatMul", "op": "MatMul", "input": ["StatefulPartitionedCall/sequential_4/transformer_block_1/sequential_2/dense_13/Tensordot/Reshape", "StatefulPartitionedCall/sequential_4/transformer_block_1/sequential_2/dense_13/Tensordot/ReadVariableOp"], "device": "/device:CPU:0", "attr": {"T": {"type": "DT_FLOAT"}, "transpose_a": {"b": false}, "transpose_b": {"b": false}}}, {"name": "StatefulPartitionedCall/sequential_4/transformer_block_1/sequential_2/dense_13/Tensordot", "op": "Reshape", "input": ["StatefulPartitionedCall/sequential_4/transformer_block_1/sequential_2/dense_13/Tensordot/MatMul", "StatefulPartitionedCall/sequential_4/transformer_block_1/sequential_2/dense_13/Tensordot/concat_1"], "attr": {"T": {"type": "DT_FLOAT"}, "Tshape": {"type": "DT_INT32"}}}, {"name": "StatefulPartitionedCall/sequential_4/transformer_block_1/sequential_2/dense_13/BiasAdd", "op": "BiasAdd", "input": ["StatefulPartitionedCall/sequential_4/transformer_block_1/sequential_2/dense_13/Tensordot", "StatefulPartitionedCall/sequential_4/transformer_block_1/sequential_2/dense_13/BiasAdd/ReadVariableOp"], "attr": {"T": {"type": "DT_FLOAT"}, "data_format": {"s": "TkhXQw=="}}}, {"name": "StatefulPartitionedCall/sequential_4/transformer_block_1/sequential_2/dense_13/Relu", "op": "Relu", "input": ["StatefulPartitionedCall/sequential_4/transformer_block_1/sequential_2/dense_13/BiasAdd"], "attr": {"T": {"type": "DT_FLOAT"}}}, {"name": "StatefulPartitionedCall/sequential_4/transformer_block_1/sequential_2/dense_14/Tensordot/Shape", "op": "Shape", "input": ["StatefulPartitionedCall/sequential_4/transformer_block_1/sequential_2/dense_13/Relu"], "attr": {"T": {"type": "DT_FLOAT"}, "out_type": {"type": "DT_INT32"}}}, {"name": "StatefulPartitionedCall/sequential_4/transformer_block_1/sequential_2/dense_14/Tensordot/GatherV2_1", "op": "GatherV2", "input": ["StatefulPartitionedCall/sequential_4/transformer_block_1/sequential_2/dense_14/Tensordot/Shape", "StatefulPartitionedCall/sequential_4/transformer_block_1/sequential_2/dense_14/Tensordot/axes", "StatefulPartitionedCall/sequential_4/transformer_block_1/sequential_2/dense_14/Tensordot/GatherV2_1/axis"], "attr": {"Taxis": {"type": "DT_INT32"}, "batch_dims": {"i": "0"}, "Tindices": {"type": "DT_INT32"}, "Tparams": {"type": "DT_INT32"}}}, {"name": "StatefulPartitionedCall/sequential_4/transformer_block_1/sequential_2/dense_14/Tensordot/GatherV2", "op": "GatherV2", "input": ["StatefulPartitionedCall/sequential_4/transformer_block_1/sequential_2/dense_14/Tensordot/Shape", "StatefulPartitionedCall/sequential_4/transformer_block_1/sequential_2/dense_14/Tensordot/free", "StatefulPartitionedCall/sequential_4/transformer_block_1/sequential_2/dense_14/Tensordot/GatherV2/axis"], "attr": {"Taxis": {"type": "DT_INT32"}, "batch_dims": {"i": "0"}, "Tindices": {"type": "DT_INT32"}, "Tparams": {"type": "DT_INT32"}}}, {"name": "StatefulPartitionedCall/sequential_4/transformer_block_1/sequential_2/dense_14/Tensordot/Prod_1", "op": "Prod", "input": ["StatefulPartitionedCall/sequential_4/transformer_block_1/sequential_2/dense_14/Tensordot/GatherV2_1", "StatefulPartitionedCall/sequential_4/transformer_block_1/sequential_2/dense_14/Tensordot/Const_1"], "attr": {"Tidx": {"type": "DT_INT32"}, "keep_dims": {"b": false}, "T": {"type": "DT_INT32"}}}, {"name": "StatefulPartitionedCall/sequential_4/transformer_block_1/sequential_2/dense_14/Tensordot/Prod", "op": "Prod", "input": ["StatefulPartitionedCall/sequential_4/transformer_block_1/sequential_2/dense_14/Tensordot/GatherV2", "StatefulPartitionedCall/sequential_4/transformer_block_1/sequential_2/dense_14/Tensordot/Const"], "attr": {"T": {"type": "DT_INT32"}, "Tidx": {"type": "DT_INT32"}, "keep_dims": {"b": false}}}, {"name": "StatefulPartitionedCall/sequential_4/transformer_block_1/sequential_2/dense_14/Tensordot/concat_1", "op": "ConcatV2", "input": ["StatefulPartitionedCall/sequential_4/transformer_block_1/sequential_2/dense_14/Tensordot/GatherV2", "StatefulPartitionedCall/sequential_4/transformer_block_1/sequential_2/dense_14/Tensordot/Const_2", "StatefulPartitionedCall/sequential_4/transformer_block_1/sequential_2/dense_14/Tensordot/concat_1/axis"], "attr": {"T": {"type": "DT_INT32"}, "N": {"i": "2"}, "Tidx": {"type": "DT_INT32"}}}, {"name": "StatefulPartitionedCall/sequential_4/transformer_block_1/sequential_2/dense_14/Tensordot/stack", "op": "Pack", "input": ["StatefulPartitionedCall/sequential_4/transformer_block_1/sequential_2/dense_14/Tensordot/Prod", "StatefulPartitionedCall/sequential_4/transformer_block_1/sequential_2/dense_14/Tensordot/Prod_1"], "attr": {"T": {"type": "DT_INT32"}, "axis": {"i": "0"}, "N": {"i": "2"}}}, {"name": "StatefulPartitionedCall/sequential_4/transformer_block_1/sequential_2/dense_14/Tensordot/Reshape", "op": "Reshape", "input": ["StatefulPartitionedCall/sequential_4/transformer_block_1/sequential_2/dense_13/Relu", "StatefulPartitionedCall/sequential_4/transformer_block_1/sequential_2/dense_14/Tensordot/stack"], "attr": {"T": {"type": "DT_FLOAT"}, "Tshape": {"type": "DT_INT32"}}}, {"name": "StatefulPartitionedCall/sequential_4/transformer_block_1/sequential_2/dense_14/Tensordot/MatMul", "op": "MatMul", "input": ["StatefulPartitionedCall/sequential_4/transformer_block_1/sequential_2/dense_14/Tensordot/Reshape", "StatefulPartitionedCall/sequential_4/transformer_block_1/sequential_2/dense_14/Tensordot/ReadVariableOp"], "device": "/device:CPU:0", "attr": {"T": {"type": "DT_FLOAT"}, "transpose_a": {"b": false}, "transpose_b": {"b": false}}}, {"name": "StatefulPartitionedCall/sequential_4/transformer_block_1/sequential_2/dense_14/Tensordot", "op": "Reshape", "input": ["StatefulPartitionedCall/sequential_4/transformer_block_1/sequential_2/dense_14/Tensordot/MatMul", "StatefulPartitionedCall/sequential_4/transformer_block_1/sequential_2/dense_14/Tensordot/concat_1"], "attr": {"T": {"type": "DT_FLOAT"}, "Tshape": {"type": "DT_INT32"}}}, {"name": "StatefulPartitionedCall/sequential_4/transformer_block_1/sequential_2/dense_14/BiasAdd", "op": "BiasAdd", "input": ["StatefulPartitionedCall/sequential_4/transformer_block_1/sequential_2/dense_14/Tensordot", "StatefulPartitionedCall/sequential_4/transformer_block_1/sequential_2/dense_14/BiasAdd/ReadVariableOp"], "attr": {"data_format": {"s": "TkhXQw=="}, "T": {"type": "DT_FLOAT"}}}, {"name": "StatefulPartitionedCall/sequential_4/transformer_block_1/add_1", "op": "AddV2", "input": ["StatefulPartitionedCall/sequential_4/transformer_block_1/layer_normalization_2/batchnorm/add_1", "StatefulPartitionedCall/sequential_4/transformer_block_1/sequential_2/dense_14/BiasAdd"], "attr": {"T": {"type": "DT_FLOAT"}}}, {"name": "StatefulPartitionedCall/sequential_4/transformer_block_1/layer_normalization_3/moments/mean", "op": "Mean", "input": ["StatefulPartitionedCall/sequential_4/transformer_block_1/add_1", "StatefulPartitionedCall/sequential_4/transformer_block_1/layer_normalization_3/moments/mean/reduction_indices"], "attr": {"Tidx": {"type": "DT_INT32"}, "keep_dims": {"b": true}, "T": {"type": "DT_FLOAT"}}}, {"name": "StatefulPartitionedCall/sequential_4/transformer_block_1/layer_normalization_3/moments/SquaredDifference", "op": "SquaredDifference", "input": ["StatefulPartitionedCall/sequential_4/transformer_block_1/add_1", "StatefulPartitionedCall/sequential_4/transformer_block_1/layer_normalization_3/moments/mean"], "attr": {"T": {"type": "DT_FLOAT"}}}, {"name": "StatefulPartitionedCall/sequential_4/transformer_block_1/layer_normalization_3/moments/variance", "op": "Mean", "input": ["StatefulPartitionedCall/sequential_4/transformer_block_1/layer_normalization_3/moments/SquaredDifference", "StatefulPartitionedCall/sequential_4/transformer_block_1/layer_normalization_3/moments/variance/reduction_indices"], "attr": {"Tidx": {"type": "DT_INT32"}, "keep_dims": {"b": true}, "T": {"type": "DT_FLOAT"}}}, {"name": "StatefulPartitionedCall/sequential_4/transformer_block_1/layer_normalization_3/batchnorm/add", "op": "AddV2", "input": ["StatefulPartitionedCall/sequential_4/transformer_block_1/layer_normalization_3/moments/variance", "StatefulPartitionedCall/sequential_4/transformer_block_1/layer_normalization_3/batchnorm/add/y"], "attr": {"T": {"type": "DT_FLOAT"}}}, {"name": "StatefulPartitionedCall/sequential_4/transformer_block_1/layer_normalization_3/batchnorm/Rsqrt", "op": "Rsqrt", "input": ["StatefulPartitionedCall/sequential_4/transformer_block_1/layer_normalization_3/batchnorm/add"], "attr": {"T": {"type": "DT_FLOAT"}}}, {"name": "StatefulPartitionedCall/sequential_4/transformer_block_1/layer_normalization_3/batchnorm/mul", "op": "Mul", "input": ["StatefulPartitionedCall/sequential_4/transformer_block_1/layer_normalization_3/batchnorm/Rsqrt", "StatefulPartitionedCall/sequential_4/transformer_block_1/layer_normalization_3/batchnorm/mul/ReadVariableOp"], "attr": {"T": {"type": "DT_FLOAT"}}}, {"name": "StatefulPartitionedCall/sequential_4/transformer_block_1/layer_normalization_3/batchnorm/mul_2", "op": "Mul", "input": ["StatefulPartitionedCall/sequential_4/transformer_block_1/layer_normalization_3/moments/mean", "StatefulPartitionedCall/sequential_4/transformer_block_1/layer_normalization_3/batchnorm/mul"], "attr": {"T": {"type": "DT_FLOAT"}}}, {"name": "StatefulPartitionedCall/sequential_4/transformer_block_1/layer_normalization_3/batchnorm/mul_1", "op": "Mul", "input": ["StatefulPartitionedCall/sequential_4/transformer_block_1/add_1", "StatefulPartitionedCall/sequential_4/transformer_block_1/layer_normalization_3/batchnorm/mul"], "attr": {"T": {"type": "DT_FLOAT"}}}, {"name": "StatefulPartitionedCall/sequential_4/transformer_block_1/layer_normalization_3/batchnorm/sub", "op": "Sub", "input": ["StatefulPartitionedCall/sequential_4/transformer_block_1/layer_normalization_3/batchnorm/ReadVariableOp", "StatefulPartitionedCall/sequential_4/transformer_block_1/layer_normalization_3/batchnorm/mul_2"], "attr": {"T": {"type": "DT_FLOAT"}}}, {"name": "StatefulPartitionedCall/sequential_4/transformer_block_1/layer_normalization_3/batchnorm/add_1", "op": "AddV2", "input": ["StatefulPartitionedCall/sequential_4/transformer_block_1/layer_normalization_3/batchnorm/mul_1", "StatefulPartitionedCall/sequential_4/transformer_block_1/layer_normalization_3/batchnorm/sub"], "attr": {"T": {"type": "DT_FLOAT"}}}, {"name": "StatefulPartitionedCall/sequential_4/transformer_block_2/dense_15/Tensordot/Shape", "op": "Shape", "input": ["StatefulPartitionedCall/sequential_4/transformer_block_1/layer_normalization_3/batchnorm/add_1"], "attr": {"T": {"type": "DT_FLOAT"}, "out_type": {"type": "DT_INT32"}}}, {"name": "StatefulPartitionedCall/sequential_4/transformer_block_2/dense_17/Tensordot/Shape", "op": "Shape", "input": ["StatefulPartitionedCall/sequential_4/transformer_block_1/layer_normalization_3/batchnorm/add_1"], "attr": {"T": {"type": "DT_FLOAT"}, "out_type": {"type": "DT_INT32"}}}, {"name": "StatefulPartitionedCall/sequential_4/transformer_block_2/dense_16/Tensordot/Shape", "op": "Shape", "input": ["StatefulPartitionedCall/sequential_4/transformer_block_1/layer_normalization_3/batchnorm/add_1"], "attr": {"T": {"type": "DT_FLOAT"}, "out_type": {"type": "DT_INT32"}}}, {"name": "StatefulPartitionedCall/sequential_4/transformer_block_2/dense_15/Tensordot/GatherV2", "op": "GatherV2", "input": ["StatefulPartitionedCall/sequential_4/transformer_block_2/dense_15/Tensordot/Shape", "StatefulPartitionedCall/sequential_4/transformer_block_2/dense_15/Tensordot/free", "StatefulPartitionedCall/sequential_4/transformer_block_2/dense_15/Tensordot/GatherV2/axis"], "attr": {"Taxis": {"type": "DT_INT32"}, "batch_dims": {"i": "0"}, "Tindices": {"type": "DT_INT32"}, "Tparams": {"type": "DT_INT32"}}}, {"name": "StatefulPartitionedCall/sequential_4/transformer_block_2/dense_15/Tensordot/GatherV2_1", "op": "GatherV2", "input": ["StatefulPartitionedCall/sequential_4/transformer_block_2/dense_15/Tensordot/Shape", "StatefulPartitionedCall/sequential_4/transformer_block_2/dense_15/Tensordot/axes", "StatefulPartitionedCall/sequential_4/transformer_block_2/dense_15/Tensordot/GatherV2_1/axis"], "attr": {"Taxis": {"type": "DT_INT32"}, "batch_dims": {"i": "0"}, "Tindices": {"type": "DT_INT32"}, "Tparams": {"type": "DT_INT32"}}}, {"name": "StatefulPartitionedCall/sequential_4/transformer_block_2/dense_17/Tensordot/GatherV2", "op": "GatherV2", "input": ["StatefulPartitionedCall/sequential_4/transformer_block_2/dense_17/Tensordot/Shape", "StatefulPartitionedCall/sequential_4/transformer_block_2/dense_17/Tensordot/free", "StatefulPartitionedCall/sequential_4/transformer_block_2/dense_17/Tensordot/GatherV2/axis"], "attr": {"Taxis": {"type": "DT_INT32"}, "batch_dims": {"i": "0"}, "Tindices": {"type": "DT_INT32"}, "Tparams": {"type": "DT_INT32"}}}, {"name": "StatefulPartitionedCall/sequential_4/transformer_block_2/dense_17/Tensordot/GatherV2_1", "op": "GatherV2", "input": ["StatefulPartitionedCall/sequential_4/transformer_block_2/dense_17/Tensordot/Shape", "StatefulPartitionedCall/sequential_4/transformer_block_2/dense_17/Tensordot/axes", "StatefulPartitionedCall/sequential_4/transformer_block_2/dense_17/Tensordot/GatherV2_1/axis"], "attr": {"batch_dims": {"i": "0"}, "Tindices": {"type": "DT_INT32"}, "Tparams": {"type": "DT_INT32"}, "Taxis": {"type": "DT_INT32"}}}, {"name": "StatefulPartitionedCall/sequential_4/transformer_block_2/dense_16/Tensordot/GatherV2", "op": "GatherV2", "input": ["StatefulPartitionedCall/sequential_4/transformer_block_2/dense_16/Tensordot/Shape", "StatefulPartitionedCall/sequential_4/transformer_block_2/dense_16/Tensordot/free", "StatefulPartitionedCall/sequential_4/transformer_block_2/dense_16/Tensordot/GatherV2/axis"], "attr": {"Taxis": {"type": "DT_INT32"}, "batch_dims": {"i": "0"}, "Tindices": {"type": "DT_INT32"}, "Tparams": {"type": "DT_INT32"}}}, {"name": "StatefulPartitionedCall/sequential_4/transformer_block_2/dense_16/Tensordot/GatherV2_1", "op": "GatherV2", "input": ["StatefulPartitionedCall/sequential_4/transformer_block_2/dense_16/Tensordot/Shape", "StatefulPartitionedCall/sequential_4/transformer_block_2/dense_16/Tensordot/axes", "StatefulPartitionedCall/sequential_4/transformer_block_2/dense_16/Tensordot/GatherV2_1/axis"], "attr": {"batch_dims": {"i": "0"}, "Tindices": {"type": "DT_INT32"}, "Tparams": {"type": "DT_INT32"}, "Taxis": {"type": "DT_INT32"}}}, {"name": "StatefulPartitionedCall/sequential_4/transformer_block_2/dense_15/Tensordot/Prod", "op": "Prod", "input": ["StatefulPartitionedCall/sequential_4/transformer_block_2/dense_15/Tensordot/GatherV2", "StatefulPartitionedCall/sequential_4/transformer_block_2/dense_15/Tensordot/Const"], "attr": {"Tidx": {"type": "DT_INT32"}, "keep_dims": {"b": false}, "T": {"type": "DT_INT32"}}}, {"name": "StatefulPartitionedCall/sequential_4/transformer_block_2/dense_15/Tensordot/Prod_1", "op": "Prod", "input": ["StatefulPartitionedCall/sequential_4/transformer_block_2/dense_15/Tensordot/GatherV2_1", "StatefulPartitionedCall/sequential_4/transformer_block_2/dense_15/Tensordot/Const_1"], "attr": {"Tidx": {"type": "DT_INT32"}, "keep_dims": {"b": false}, "T": {"type": "DT_INT32"}}}, {"name": "StatefulPartitionedCall/sequential_4/transformer_block_2/dense_17/Tensordot/Prod", "op": "Prod", "input": ["StatefulPartitionedCall/sequential_4/transformer_block_2/dense_17/Tensordot/GatherV2", "StatefulPartitionedCall/sequential_4/transformer_block_2/dense_17/Tensordot/Const"], "attr": {"Tidx": {"type": "DT_INT32"}, "keep_dims": {"b": false}, "T": {"type": "DT_INT32"}}}, {"name": "StatefulPartitionedCall/sequential_4/transformer_block_2/dense_17/Tensordot/Prod_1", "op": "Prod", "input": ["StatefulPartitionedCall/sequential_4/transformer_block_2/dense_17/Tensordot/GatherV2_1", "StatefulPartitionedCall/sequential_4/transformer_block_2/dense_17/Tensordot/Const_1"], "attr": {"Tidx": {"type": "DT_INT32"}, "keep_dims": {"b": false}, "T": {"type": "DT_INT32"}}}, {"name": "StatefulPartitionedCall/sequential_4/transformer_block_2/dense_16/Tensordot/Prod", "op": "Prod", "input": ["StatefulPartitionedCall/sequential_4/transformer_block_2/dense_16/Tensordot/GatherV2", "StatefulPartitionedCall/sequential_4/transformer_block_2/dense_16/Tensordot/Const"], "attr": {"Tidx": {"type": "DT_INT32"}, "keep_dims": {"b": false}, "T": {"type": "DT_INT32"}}}, {"name": "StatefulPartitionedCall/sequential_4/transformer_block_2/dense_16/Tensordot/Prod_1", "op": "Prod", "input": ["StatefulPartitionedCall/sequential_4/transformer_block_2/dense_16/Tensordot/GatherV2_1", "StatefulPartitionedCall/sequential_4/transformer_block_2/dense_16/Tensordot/Const_1"], "attr": {"Tidx": {"type": "DT_INT32"}, "keep_dims": {"b": false}, "T": {"type": "DT_INT32"}}}, {"name": "StatefulPartitionedCall/sequential_4/transformer_block_2/dense_15/Tensordot/stack", "op": "Pack", "input": ["StatefulPartitionedCall/sequential_4/transformer_block_2/dense_15/Tensordot/Prod", "StatefulPartitionedCall/sequential_4/transformer_block_2/dense_15/Tensordot/Prod_1"], "attr": {"T": {"type": "DT_INT32"}, "axis": {"i": "0"}, "N": {"i": "2"}}}, {"name": "StatefulPartitionedCall/sequential_4/transformer_block_2/dense_17/Tensordot/stack", "op": "Pack", "input": ["StatefulPartitionedCall/sequential_4/transformer_block_2/dense_17/Tensordot/Prod", "StatefulPartitionedCall/sequential_4/transformer_block_2/dense_17/Tensordot/Prod_1"], "attr": {"N": {"i": "2"}, "T": {"type": "DT_INT32"}, "axis": {"i": "0"}}}, {"name": "StatefulPartitionedCall/sequential_4/transformer_block_2/dense_16/Tensordot/stack", "op": "Pack", "input": ["StatefulPartitionedCall/sequential_4/transformer_block_2/dense_16/Tensordot/Prod", "StatefulPartitionedCall/sequential_4/transformer_block_2/dense_16/Tensordot/Prod_1"], "attr": {"N": {"i": "2"}, "T": {"type": "DT_INT32"}, "axis": {"i": "0"}}}, {"name": "StatefulPartitionedCall/sequential_4/transformer_block_2/dense_15/Tensordot/Reshape", "op": "Reshape", "input": ["StatefulPartitionedCall/sequential_4/transformer_block_1/layer_normalization_3/batchnorm/add_1", "StatefulPartitionedCall/sequential_4/transformer_block_2/dense_15/Tensordot/stack"], "attr": {"T": {"type": "DT_FLOAT"}, "Tshape": {"type": "DT_INT32"}}}, {"name": "StatefulPartitionedCall/sequential_4/transformer_block_2/dense_17/Tensordot/Reshape", "op": "Reshape", "input": ["StatefulPartitionedCall/sequential_4/transformer_block_1/layer_normalization_3/batchnorm/add_1", "StatefulPartitionedCall/sequential_4/transformer_block_2/dense_17/Tensordot/stack"], "attr": {"T": {"type": "DT_FLOAT"}, "Tshape": {"type": "DT_INT32"}}}, {"name": "StatefulPartitionedCall/sequential_4/transformer_block_2/dense_16/Tensordot/Reshape", "op": "Reshape", "input": ["StatefulPartitionedCall/sequential_4/transformer_block_1/layer_normalization_3/batchnorm/add_1", "StatefulPartitionedCall/sequential_4/transformer_block_2/dense_16/Tensordot/stack"], "attr": {"T": {"type": "DT_FLOAT"}, "Tshape": {"type": "DT_INT32"}}}, {"name": "StatefulPartitionedCall/sequential_4/transformer_block_2/dense_15/Tensordot/MatMul", "op": "MatMul", "input": ["StatefulPartitionedCall/sequential_4/transformer_block_2/dense_15/Tensordot/Reshape", "StatefulPartitionedCall/sequential_4/transformer_block_2/dense_15/Tensordot/ReadVariableOp"], "device": "/device:CPU:0", "attr": {"T": {"type": "DT_FLOAT"}, "transpose_a": {"b": false}, "transpose_b": {"b": false}}}, {"name": "StatefulPartitionedCall/sequential_4/transformer_block_2/dense_17/Tensordot/MatMul", "op": "MatMul", "input": ["StatefulPartitionedCall/sequential_4/transformer_block_2/dense_17/Tensordot/Reshape", "StatefulPartitionedCall/sequential_4/transformer_block_2/dense_17/Tensordot/ReadVariableOp"], "device": "/device:CPU:0", "attr": {"transpose_a": {"b": false}, "transpose_b": {"b": false}, "T": {"type": "DT_FLOAT"}}}, {"name": "StatefulPartitionedCall/sequential_4/transformer_block_2/dense_16/Tensordot/MatMul", "op": "MatMul", "input": ["StatefulPartitionedCall/sequential_4/transformer_block_2/dense_16/Tensordot/Reshape", "StatefulPartitionedCall/sequential_4/transformer_block_2/dense_16/Tensordot/ReadVariableOp"], "device": "/device:CPU:0", "attr": {"transpose_a": {"b": false}, "transpose_b": {"b": false}, "T": {"type": "DT_FLOAT"}}}, {"name": "StatefulPartitionedCall/sequential_4/transformer_block_2/Reshape", "op": "Reshape", "input": ["StatefulPartitionedCall/sequential_4/transformer_block_2/dense_15/Tensordot/MatMul", "StatefulPartitionedCall/sequential_4/transformer_block_2/Reshape/shape"], "attr": {"T": {"type": "DT_FLOAT"}, "Tshape": {"type": "DT_INT32"}}}, {"name": "StatefulPartitionedCall/sequential_4/transformer_block_2/Reshape_2", "op": "Reshape", "input": ["StatefulPartitionedCall/sequential_4/transformer_block_2/dense_17/Tensordot/MatMul", "StatefulPartitionedCall/sequential_4/transformer_block_2/Reshape_2/shape"], "attr": {"T": {"type": "DT_FLOAT"}, "Tshape": {"type": "DT_INT32"}}}, {"name": "StatefulPartitionedCall/sequential_4/transformer_block_2/Reshape_1", "op": "Reshape", "input": ["StatefulPartitionedCall/sequential_4/transformer_block_2/dense_16/Tensordot/MatMul", "StatefulPartitionedCall/sequential_4/transformer_block_2/Reshape_1/shape"], "attr": {"T": {"type": "DT_FLOAT"}, "Tshape": {"type": "DT_INT32"}}}, {"name": "StatefulPartitionedCall/sequential_4/transformer_block_2/transpose", "op": "Transpose", "input": ["StatefulPartitionedCall/sequential_4/transformer_block_2/Reshape", "StatefulPartitionedCall/sequential_4/transformer_block_2/transpose/perm"], "attr": {"T": {"type": "DT_FLOAT"}, "Tperm": {"type": "DT_INT32"}}}, {"name": "StatefulPartitionedCall/sequential_4/transformer_block_2/transpose_1", "op": "Transpose", "input": ["StatefulPartitionedCall/sequential_4/transformer_block_2/Reshape_2", "StatefulPartitionedCall/sequential_4/transformer_block_2/transpose_1/perm"], "attr": {"Tperm": {"type": "DT_INT32"}, "T": {"type": "DT_FLOAT"}}}, {"name": "StatefulPartitionedCall/sequential_4/transformer_block_2/transpose_2", "op": "Transpose", "input": ["StatefulPartitionedCall/sequential_4/transformer_block_2/Reshape_1", "StatefulPartitionedCall/sequential_4/transformer_block_2/transpose_2/perm"], "attr": {"Tperm": {"type": "DT_INT32"}, "T": {"type": "DT_FLOAT"}}}, {"name": "StatefulPartitionedCall/sequential_4/transformer_block_2/matmul", "op": "BatchMatMulV2", "input": ["StatefulPartitionedCall/sequential_4/transformer_block_2/transpose", "StatefulPartitionedCall/sequential_4/transformer_block_2/transpose_1"], "attr": {"adj_y": {"b": false}, "T": {"type": "DT_FLOAT"}, "adj_x": {"b": false}}}, {"name": "StatefulPartitionedCall/sequential_4/transformer_block_2/truediv", "op": "Mul", "input": ["StatefulPartitionedCall/sequential_4/transformer_block_2/matmul", "ConstantFolding/StatefulPartitionedCall/sequential_4/transformer_block_2/truediv_recip"], "attr": {"T": {"type": "DT_FLOAT"}}}, {"name": "StatefulPartitionedCall/sequential_4/transformer_block_2/Softmax", "op": "Softmax", "input": ["StatefulPartitionedCall/sequential_4/transformer_block_2/truediv"], "attr": {"T": {"type": "DT_FLOAT"}}}, {"name": "StatefulPartitionedCall/sequential_4/transformer_block_2/matmul_1", "op": "BatchMatMulV2", "input": ["StatefulPartitionedCall/sequential_4/transformer_block_2/Softmax", "StatefulPartitionedCall/sequential_4/transformer_block_2/transpose_2"], "attr": {"adj_y": {"b": false}, "T": {"type": "DT_FLOAT"}, "adj_x": {"b": false}}}, {"name": "StatefulPartitionedCall/sequential_4/transformer_block_2/transpose_3", "op": "Transpose", "input": ["StatefulPartitionedCall/sequential_4/transformer_block_2/matmul_1", "StatefulPartitionedCall/sequential_4/transformer_block_2/transpose_3/perm"], "attr": {"Tperm": {"type": "DT_INT32"}, "T": {"type": "DT_FLOAT"}}}, {"name": "StatefulPartitionedCall/sequential_4/transformer_block_2/Reshape_3", "op": "Reshape", "input": ["StatefulPartitionedCall/sequential_4/transformer_block_2/transpose_3", "StatefulPartitionedCall/sequential_4/transformer_block_2/Reshape_3/shape"], "attr": {"Tshape": {"type": "DT_INT32"}, "T": {"type": "DT_FLOAT"}}}, {"name": "StatefulPartitionedCall/sequential_4/transformer_block_2/dense_18/Tensordot/Shape", "op": "Shape", "input": ["StatefulPartitionedCall/sequential_4/transformer_block_2/Reshape_3"], "attr": {"T": {"type": "DT_FLOAT"}, "out_type": {"type": "DT_INT32"}}}, {"name": "StatefulPartitionedCall/sequential_4/transformer_block_2/dense_18/Tensordot/GatherV2_1", "op": "GatherV2", "input": ["StatefulPartitionedCall/sequential_4/transformer_block_2/dense_18/Tensordot/Shape", "StatefulPartitionedCall/sequential_4/transformer_block_2/dense_18/Tensordot/axes", "StatefulPartitionedCall/sequential_4/transformer_block_2/dense_18/Tensordot/GatherV2_1/axis"], "attr": {"Taxis": {"type": "DT_INT32"}, "batch_dims": {"i": "0"}, "Tindices": {"type": "DT_INT32"}, "Tparams": {"type": "DT_INT32"}}}, {"name": "StatefulPartitionedCall/sequential_4/transformer_block_2/dense_18/Tensordot/GatherV2", "op": "GatherV2", "input": ["StatefulPartitionedCall/sequential_4/transformer_block_2/dense_18/Tensordot/Shape", "StatefulPartitionedCall/sequential_4/transformer_block_2/dense_18/Tensordot/free", "StatefulPartitionedCall/sequential_4/transformer_block_2/dense_18/Tensordot/GatherV2/axis"], "attr": {"Tindices": {"type": "DT_INT32"}, "Tparams": {"type": "DT_INT32"}, "Taxis": {"type": "DT_INT32"}, "batch_dims": {"i": "0"}}}, {"name": "StatefulPartitionedCall/sequential_4/transformer_block_2/dense_18/Tensordot/Prod_1", "op": "Prod", "input": ["StatefulPartitionedCall/sequential_4/transformer_block_2/dense_18/Tensordot/GatherV2_1", "StatefulPartitionedCall/sequential_4/transformer_block_2/dense_18/Tensordot/Const_1"], "attr": {"Tidx": {"type": "DT_INT32"}, "keep_dims": {"b": false}, "T": {"type": "DT_INT32"}}}, {"name": "StatefulPartitionedCall/sequential_4/transformer_block_2/dense_18/Tensordot/Prod", "op": "Prod", "input": ["StatefulPartitionedCall/sequential_4/transformer_block_2/dense_18/Tensordot/GatherV2", "StatefulPartitionedCall/sequential_4/transformer_block_2/dense_18/Tensordot/Const"], "attr": {"Tidx": {"type": "DT_INT32"}, "keep_dims": {"b": false}, "T": {"type": "DT_INT32"}}}, {"name": "StatefulPartitionedCall/sequential_4/transformer_block_2/dense_18/Tensordot/concat_1", "op": "ConcatV2", "input": ["StatefulPartitionedCall/sequential_4/transformer_block_2/dense_18/Tensordot/GatherV2", "StatefulPartitionedCall/sequential_4/transformer_block_2/dense_18/Tensordot/Const_2", "StatefulPartitionedCall/sequential_4/transformer_block_2/dense_18/Tensordot/concat_1/axis"], "attr": {"T": {"type": "DT_INT32"}, "N": {"i": "2"}, "Tidx": {"type": "DT_INT32"}}}, {"name": "StatefulPartitionedCall/sequential_4/transformer_block_2/dense_18/Tensordot/stack", "op": "Pack", "input": ["StatefulPartitionedCall/sequential_4/transformer_block_2/dense_18/Tensordot/Prod", "StatefulPartitionedCall/sequential_4/transformer_block_2/dense_18/Tensordot/Prod_1"], "attr": {"T": {"type": "DT_INT32"}, "axis": {"i": "0"}, "N": {"i": "2"}}}, {"name": "StatefulPartitionedCall/sequential_4/transformer_block_2/dense_18/Tensordot/Reshape", "op": "Reshape", "input": ["StatefulPartitionedCall/sequential_4/transformer_block_2/transpose_3", "StatefulPartitionedCall/sequential_4/transformer_block_2/dense_18/Tensordot/stack"], "attr": {"T": {"type": "DT_FLOAT"}, "Tshape": {"type": "DT_INT32"}}}, {"name": "StatefulPartitionedCall/sequential_4/transformer_block_2/dense_18/Tensordot/MatMul", "op": "MatMul", "input": ["StatefulPartitionedCall/sequential_4/transformer_block_2/dense_18/Tensordot/Reshape", "StatefulPartitionedCall/sequential_4/transformer_block_2/dense_18/Tensordot/ReadVariableOp"], "device": "/device:CPU:0", "attr": {"transpose_a": {"b": false}, "transpose_b": {"b": false}, "T": {"type": "DT_FLOAT"}}}, {"name": "StatefulPartitionedCall/sequential_4/transformer_block_2/dense_18/Tensordot", "op": "Reshape", "input": ["StatefulPartitionedCall/sequential_4/transformer_block_2/dense_18/Tensordot/MatMul", "StatefulPartitionedCall/sequential_4/transformer_block_2/dense_18/Tensordot/concat_1"], "attr": {"T": {"type": "DT_FLOAT"}, "Tshape": {"type": "DT_INT32"}}}, {"name": "StatefulPartitionedCall/sequential_4/transformer_block_2/add", "op": "AddV2", "input": ["StatefulPartitionedCall/sequential_4/transformer_block_1/layer_normalization_3/batchnorm/add_1", "StatefulPartitionedCall/sequential_4/transformer_block_2/dense_18/Tensordot"], "attr": {"T": {"type": "DT_FLOAT"}}}, {"name": "StatefulPartitionedCall/sequential_4/transformer_block_2/layer_normalization_4/moments/mean", "op": "Mean", "input": ["StatefulPartitionedCall/sequential_4/transformer_block_2/add", "StatefulPartitionedCall/sequential_4/transformer_block_2/layer_normalization_4/moments/mean/reduction_indices"], "attr": {"T": {"type": "DT_FLOAT"}, "Tidx": {"type": "DT_INT32"}, "keep_dims": {"b": true}}}, {"name": "StatefulPartitionedCall/sequential_4/transformer_block_2/layer_normalization_4/moments/SquaredDifference", "op": "SquaredDifference", "input": ["StatefulPartitionedCall/sequential_4/transformer_block_2/add", "StatefulPartitionedCall/sequential_4/transformer_block_2/layer_normalization_4/moments/mean"], "attr": {"T": {"type": "DT_FLOAT"}}}, {"name": "StatefulPartitionedCall/sequential_4/transformer_block_2/layer_normalization_4/moments/variance", "op": "Mean", "input": ["StatefulPartitionedCall/sequential_4/transformer_block_2/layer_normalization_4/moments/SquaredDifference", "StatefulPartitionedCall/sequential_4/transformer_block_2/layer_normalization_4/moments/variance/reduction_indices"], "attr": {"Tidx": {"type": "DT_INT32"}, "keep_dims": {"b": true}, "T": {"type": "DT_FLOAT"}}}, {"name": "StatefulPartitionedCall/sequential_4/transformer_block_2/layer_normalization_4/batchnorm/add", "op": "AddV2", "input": ["StatefulPartitionedCall/sequential_4/transformer_block_2/layer_normalization_4/moments/variance", "StatefulPartitionedCall/sequential_4/transformer_block_2/layer_normalization_4/batchnorm/add/y"], "attr": {"T": {"type": "DT_FLOAT"}}}, {"name": "StatefulPartitionedCall/sequential_4/transformer_block_2/layer_normalization_4/batchnorm/Rsqrt", "op": "Rsqrt", "input": ["StatefulPartitionedCall/sequential_4/transformer_block_2/layer_normalization_4/batchnorm/add"], "attr": {"T": {"type": "DT_FLOAT"}}}, {"name": "StatefulPartitionedCall/sequential_4/transformer_block_2/layer_normalization_4/batchnorm/mul", "op": "Mul", "input": ["StatefulPartitionedCall/sequential_4/transformer_block_2/layer_normalization_4/batchnorm/Rsqrt", "StatefulPartitionedCall/sequential_4/transformer_block_2/layer_normalization_4/batchnorm/mul/ReadVariableOp"], "attr": {"T": {"type": "DT_FLOAT"}}}, {"name": "StatefulPartitionedCall/sequential_4/transformer_block_2/layer_normalization_4/batchnorm/mul_2", "op": "Mul", "input": ["StatefulPartitionedCall/sequential_4/transformer_block_2/layer_normalization_4/moments/mean", "StatefulPartitionedCall/sequential_4/transformer_block_2/layer_normalization_4/batchnorm/mul"], "attr": {"T": {"type": "DT_FLOAT"}}}, {"name": "StatefulPartitionedCall/sequential_4/transformer_block_2/layer_normalization_4/batchnorm/mul_1", "op": "Mul", "input": ["StatefulPartitionedCall/sequential_4/transformer_block_2/add", "StatefulPartitionedCall/sequential_4/transformer_block_2/layer_normalization_4/batchnorm/mul"], "attr": {"T": {"type": "DT_FLOAT"}}}, {"name": "StatefulPartitionedCall/sequential_4/transformer_block_2/layer_normalization_4/batchnorm/sub", "op": "Sub", "input": ["StatefulPartitionedCall/sequential_4/transformer_block_2/layer_normalization_4/batchnorm/ReadVariableOp", "StatefulPartitionedCall/sequential_4/transformer_block_2/layer_normalization_4/batchnorm/mul_2"], "attr": {"T": {"type": "DT_FLOAT"}}}, {"name": "StatefulPartitionedCall/sequential_4/transformer_block_2/layer_normalization_4/batchnorm/add_1", "op": "AddV2", "input": ["StatefulPartitionedCall/sequential_4/transformer_block_2/layer_normalization_4/batchnorm/mul_1", "StatefulPartitionedCall/sequential_4/transformer_block_2/layer_normalization_4/batchnorm/sub"], "attr": {"T": {"type": "DT_FLOAT"}}}, {"name": "StatefulPartitionedCall/sequential_4/transformer_block_2/sequential_3/dense_19/Tensordot/Shape", "op": "Shape", "input": ["StatefulPartitionedCall/sequential_4/transformer_block_2/layer_normalization_4/batchnorm/add_1"], "attr": {"T": {"type": "DT_FLOAT"}, "out_type": {"type": "DT_INT32"}}}, {"name": "StatefulPartitionedCall/sequential_4/transformer_block_2/sequential_3/dense_19/Tensordot/GatherV2_1", "op": "GatherV2", "input": ["StatefulPartitionedCall/sequential_4/transformer_block_2/sequential_3/dense_19/Tensordot/Shape", "StatefulPartitionedCall/sequential_4/transformer_block_2/sequential_3/dense_19/Tensordot/axes", "StatefulPartitionedCall/sequential_4/transformer_block_2/sequential_3/dense_19/Tensordot/GatherV2_1/axis"], "attr": {"Tindices": {"type": "DT_INT32"}, "Tparams": {"type": "DT_INT32"}, "Taxis": {"type": "DT_INT32"}, "batch_dims": {"i": "0"}}}, {"name": "StatefulPartitionedCall/sequential_4/transformer_block_2/sequential_3/dense_19/Tensordot/GatherV2", "op": "GatherV2", "input": ["StatefulPartitionedCall/sequential_4/transformer_block_2/sequential_3/dense_19/Tensordot/Shape", "StatefulPartitionedCall/sequential_4/transformer_block_2/sequential_3/dense_19/Tensordot/free", "StatefulPartitionedCall/sequential_4/transformer_block_2/sequential_3/dense_19/Tensordot/GatherV2/axis"], "attr": {"Tparams": {"type": "DT_INT32"}, "Taxis": {"type": "DT_INT32"}, "batch_dims": {"i": "0"}, "Tindices": {"type": "DT_INT32"}}}, {"name": "StatefulPartitionedCall/sequential_4/transformer_block_2/sequential_3/dense_19/Tensordot/Prod_1", "op": "Prod", "input": ["StatefulPartitionedCall/sequential_4/transformer_block_2/sequential_3/dense_19/Tensordot/GatherV2_1", "StatefulPartitionedCall/sequential_4/transformer_block_2/sequential_3/dense_19/Tensordot/Const_1"], "attr": {"T": {"type": "DT_INT32"}, "Tidx": {"type": "DT_INT32"}, "keep_dims": {"b": false}}}, {"name": "StatefulPartitionedCall/sequential_4/transformer_block_2/sequential_3/dense_19/Tensordot/Prod", "op": "Prod", "input": ["StatefulPartitionedCall/sequential_4/transformer_block_2/sequential_3/dense_19/Tensordot/GatherV2", "StatefulPartitionedCall/sequential_4/transformer_block_2/sequential_3/dense_19/Tensordot/Const"], "attr": {"Tidx": {"type": "DT_INT32"}, "keep_dims": {"b": false}, "T": {"type": "DT_INT32"}}}, {"name": "StatefulPartitionedCall/sequential_4/transformer_block_2/sequential_3/dense_19/Tensordot/concat_1", "op": "ConcatV2", "input": ["StatefulPartitionedCall/sequential_4/transformer_block_2/sequential_3/dense_19/Tensordot/GatherV2", "StatefulPartitionedCall/sequential_4/transformer_block_2/sequential_3/dense_19/Tensordot/Const_2", "StatefulPartitionedCall/sequential_4/transformer_block_2/sequential_3/dense_19/Tensordot/concat_1/axis"], "attr": {"N": {"i": "2"}, "Tidx": {"type": "DT_INT32"}, "T": {"type": "DT_INT32"}}}, {"name": "StatefulPartitionedCall/sequential_4/transformer_block_2/sequential_3/dense_19/Tensordot/stack", "op": "Pack", "input": ["StatefulPartitionedCall/sequential_4/transformer_block_2/sequential_3/dense_19/Tensordot/Prod", "StatefulPartitionedCall/sequential_4/transformer_block_2/sequential_3/dense_19/Tensordot/Prod_1"], "attr": {"T": {"type": "DT_INT32"}, "axis": {"i": "0"}, "N": {"i": "2"}}}, {"name": "StatefulPartitionedCall/sequential_4/transformer_block_2/sequential_3/dense_19/Tensordot/Reshape", "op": "Reshape", "input": ["StatefulPartitionedCall/sequential_4/transformer_block_2/layer_normalization_4/batchnorm/add_1", "StatefulPartitionedCall/sequential_4/transformer_block_2/sequential_3/dense_19/Tensordot/stack"], "attr": {"Tshape": {"type": "DT_INT32"}, "T": {"type": "DT_FLOAT"}}}, {"name": "StatefulPartitionedCall/sequential_4/transformer_block_2/sequential_3/dense_19/Tensordot/MatMul", "op": "MatMul", "input": ["StatefulPartitionedCall/sequential_4/transformer_block_2/sequential_3/dense_19/Tensordot/Reshape", "StatefulPartitionedCall/sequential_4/transformer_block_2/sequential_3/dense_19/Tensordot/ReadVariableOp"], "device": "/device:CPU:0", "attr": {"T": {"type": "DT_FLOAT"}, "transpose_a": {"b": false}, "transpose_b": {"b": false}}}, {"name": "StatefulPartitionedCall/sequential_4/transformer_block_2/sequential_3/dense_19/Tensordot", "op": "Reshape", "input": ["StatefulPartitionedCall/sequential_4/transformer_block_2/sequential_3/dense_19/Tensordot/MatMul", "StatefulPartitionedCall/sequential_4/transformer_block_2/sequential_3/dense_19/Tensordot/concat_1"], "attr": {"T": {"type": "DT_FLOAT"}, "Tshape": {"type": "DT_INT32"}}}, {"name": "StatefulPartitionedCall/sequential_4/transformer_block_2/sequential_3/dense_19/BiasAdd", "op": "BiasAdd", "input": ["StatefulPartitionedCall/sequential_4/transformer_block_2/sequential_3/dense_19/Tensordot", "StatefulPartitionedCall/sequential_4/transformer_block_2/sequential_3/dense_19/BiasAdd/ReadVariableOp"], "attr": {"T": {"type": "DT_FLOAT"}, "data_format": {"s": "TkhXQw=="}}}, {"name": "StatefulPartitionedCall/sequential_4/transformer_block_2/sequential_3/dense_19/Relu", "op": "Relu", "input": ["StatefulPartitionedCall/sequential_4/transformer_block_2/sequential_3/dense_19/BiasAdd"], "attr": {"T": {"type": "DT_FLOAT"}}}, {"name": "StatefulPartitionedCall/sequential_4/transformer_block_2/sequential_3/dense_20/Tensordot/Shape", "op": "Shape", "input": ["StatefulPartitionedCall/sequential_4/transformer_block_2/sequential_3/dense_19/Relu"], "attr": {"T": {"type": "DT_FLOAT"}, "out_type": {"type": "DT_INT32"}}}, {"name": "StatefulPartitionedCall/sequential_4/transformer_block_2/sequential_3/dense_20/Tensordot/GatherV2_1", "op": "GatherV2", "input": ["StatefulPartitionedCall/sequential_4/transformer_block_2/sequential_3/dense_20/Tensordot/Shape", "StatefulPartitionedCall/sequential_4/transformer_block_2/sequential_3/dense_20/Tensordot/axes", "StatefulPartitionedCall/sequential_4/transformer_block_2/sequential_3/dense_20/Tensordot/GatherV2_1/axis"], "attr": {"Taxis": {"type": "DT_INT32"}, "batch_dims": {"i": "0"}, "Tindices": {"type": "DT_INT32"}, "Tparams": {"type": "DT_INT32"}}}, {"name": "StatefulPartitionedCall/sequential_4/transformer_block_2/sequential_3/dense_20/Tensordot/GatherV2", "op": "GatherV2", "input": ["StatefulPartitionedCall/sequential_4/transformer_block_2/sequential_3/dense_20/Tensordot/Shape", "StatefulPartitionedCall/sequential_4/transformer_block_2/sequential_3/dense_20/Tensordot/free", "StatefulPartitionedCall/sequential_4/transformer_block_2/sequential_3/dense_20/Tensordot/GatherV2/axis"], "attr": {"Tparams": {"type": "DT_INT32"}, "Taxis": {"type": "DT_INT32"}, "batch_dims": {"i": "0"}, "Tindices": {"type": "DT_INT32"}}}, {"name": "StatefulPartitionedCall/sequential_4/transformer_block_2/sequential_3/dense_20/Tensordot/Prod_1", "op": "Prod", "input": ["StatefulPartitionedCall/sequential_4/transformer_block_2/sequential_3/dense_20/Tensordot/GatherV2_1", "StatefulPartitionedCall/sequential_4/transformer_block_2/sequential_3/dense_20/Tensordot/Const_1"], "attr": {"Tidx": {"type": "DT_INT32"}, "keep_dims": {"b": false}, "T": {"type": "DT_INT32"}}}, {"name": "StatefulPartitionedCall/sequential_4/transformer_block_2/sequential_3/dense_20/Tensordot/Prod", "op": "Prod", "input": ["StatefulPartitionedCall/sequential_4/transformer_block_2/sequential_3/dense_20/Tensordot/GatherV2", "StatefulPartitionedCall/sequential_4/transformer_block_2/sequential_3/dense_20/Tensordot/Const"], "attr": {"Tidx": {"type": "DT_INT32"}, "keep_dims": {"b": false}, "T": {"type": "DT_INT32"}}}, {"name": "StatefulPartitionedCall/sequential_4/transformer_block_2/sequential_3/dense_20/Tensordot/concat_1", "op": "ConcatV2", "input": ["StatefulPartitionedCall/sequential_4/transformer_block_2/sequential_3/dense_20/Tensordot/GatherV2", "StatefulPartitionedCall/sequential_4/transformer_block_2/sequential_3/dense_20/Tensordot/Const_2", "StatefulPartitionedCall/sequential_4/transformer_block_2/sequential_3/dense_20/Tensordot/concat_1/axis"], "attr": {"T": {"type": "DT_INT32"}, "N": {"i": "2"}, "Tidx": {"type": "DT_INT32"}}}, {"name": "StatefulPartitionedCall/sequential_4/transformer_block_2/sequential_3/dense_20/Tensordot/stack", "op": "Pack", "input": ["StatefulPartitionedCall/sequential_4/transformer_block_2/sequential_3/dense_20/Tensordot/Prod", "StatefulPartitionedCall/sequential_4/transformer_block_2/sequential_3/dense_20/Tensordot/Prod_1"], "attr": {"T": {"type": "DT_INT32"}, "axis": {"i": "0"}, "N": {"i": "2"}}}, {"name": "StatefulPartitionedCall/sequential_4/transformer_block_2/sequential_3/dense_20/Tensordot/Reshape", "op": "Reshape", "input": ["StatefulPartitionedCall/sequential_4/transformer_block_2/sequential_3/dense_19/Relu", "StatefulPartitionedCall/sequential_4/transformer_block_2/sequential_3/dense_20/Tensordot/stack"], "attr": {"T": {"type": "DT_FLOAT"}, "Tshape": {"type": "DT_INT32"}}}, {"name": "StatefulPartitionedCall/sequential_4/transformer_block_2/sequential_3/dense_20/Tensordot/MatMul", "op": "MatMul", "input": ["StatefulPartitionedCall/sequential_4/transformer_block_2/sequential_3/dense_20/Tensordot/Reshape", "StatefulPartitionedCall/sequential_4/transformer_block_2/sequential_3/dense_20/Tensordot/ReadVariableOp"], "device": "/device:CPU:0", "attr": {"T": {"type": "DT_FLOAT"}, "transpose_a": {"b": false}, "transpose_b": {"b": false}}}, {"name": "StatefulPartitionedCall/sequential_4/transformer_block_2/sequential_3/dense_20/Tensordot", "op": "Reshape", "input": ["StatefulPartitionedCall/sequential_4/transformer_block_2/sequential_3/dense_20/Tensordot/MatMul", "StatefulPartitionedCall/sequential_4/transformer_block_2/sequential_3/dense_20/Tensordot/concat_1"], "attr": {"T": {"type": "DT_FLOAT"}, "Tshape": {"type": "DT_INT32"}}}, {"name": "StatefulPartitionedCall/sequential_4/transformer_block_2/sequential_3/dense_20/BiasAdd", "op": "BiasAdd", "input": ["StatefulPartitionedCall/sequential_4/transformer_block_2/sequential_3/dense_20/Tensordot", "StatefulPartitionedCall/sequential_4/transformer_block_2/sequential_3/dense_20/BiasAdd/ReadVariableOp"], "attr": {"data_format": {"s": "TkhXQw=="}, "T": {"type": "DT_FLOAT"}}}, {"name": "StatefulPartitionedCall/sequential_4/transformer_block_2/add_1", "op": "AddV2", "input": ["StatefulPartitionedCall/sequential_4/transformer_block_2/layer_normalization_4/batchnorm/add_1", "StatefulPartitionedCall/sequential_4/transformer_block_2/sequential_3/dense_20/BiasAdd"], "attr": {"T": {"type": "DT_FLOAT"}}}, {"name": "StatefulPartitionedCall/sequential_4/transformer_block_2/layer_normalization_5/moments/mean", "op": "Mean", "input": ["StatefulPartitionedCall/sequential_4/transformer_block_2/add_1", "StatefulPartitionedCall/sequential_4/transformer_block_2/layer_normalization_5/moments/mean/reduction_indices"], "attr": {"T": {"type": "DT_FLOAT"}, "Tidx": {"type": "DT_INT32"}, "keep_dims": {"b": true}}}, {"name": "StatefulPartitionedCall/sequential_4/transformer_block_2/layer_normalization_5/moments/SquaredDifference", "op": "SquaredDifference", "input": ["StatefulPartitionedCall/sequential_4/transformer_block_2/add_1", "StatefulPartitionedCall/sequential_4/transformer_block_2/layer_normalization_5/moments/mean"], "attr": {"T": {"type": "DT_FLOAT"}}}, {"name": "StatefulPartitionedCall/sequential_4/transformer_block_2/layer_normalization_5/moments/variance", "op": "Mean", "input": ["StatefulPartitionedCall/sequential_4/transformer_block_2/layer_normalization_5/moments/SquaredDifference", "StatefulPartitionedCall/sequential_4/transformer_block_2/layer_normalization_5/moments/variance/reduction_indices"], "attr": {"T": {"type": "DT_FLOAT"}, "Tidx": {"type": "DT_INT32"}, "keep_dims": {"b": true}}}, {"name": "StatefulPartitionedCall/sequential_4/transformer_block_2/layer_normalization_5/batchnorm/add", "op": "AddV2", "input": ["StatefulPartitionedCall/sequential_4/transformer_block_2/layer_normalization_5/moments/variance", "StatefulPartitionedCall/sequential_4/transformer_block_2/layer_normalization_5/batchnorm/add/y"], "attr": {"T": {"type": "DT_FLOAT"}}}, {"name": "StatefulPartitionedCall/sequential_4/transformer_block_2/layer_normalization_5/batchnorm/Rsqrt", "op": "Rsqrt", "input": ["StatefulPartitionedCall/sequential_4/transformer_block_2/layer_normalization_5/batchnorm/add"], "attr": {"T": {"type": "DT_FLOAT"}}}, {"name": "StatefulPartitionedCall/sequential_4/transformer_block_2/layer_normalization_5/batchnorm/mul", "op": "Mul", "input": ["StatefulPartitionedCall/sequential_4/transformer_block_2/layer_normalization_5/batchnorm/Rsqrt", "StatefulPartitionedCall/sequential_4/transformer_block_2/layer_normalization_5/batchnorm/mul/ReadVariableOp"], "attr": {"T": {"type": "DT_FLOAT"}}}, {"name": "StatefulPartitionedCall/sequential_4/transformer_block_2/layer_normalization_5/batchnorm/mul_2", "op": "Mul", "input": ["StatefulPartitionedCall/sequential_4/transformer_block_2/layer_normalization_5/moments/mean", "StatefulPartitionedCall/sequential_4/transformer_block_2/layer_normalization_5/batchnorm/mul"], "attr": {"T": {"type": "DT_FLOAT"}}}, {"name": "StatefulPartitionedCall/sequential_4/transformer_block_2/layer_normalization_5/batchnorm/mul_1", "op": "Mul", "input": ["StatefulPartitionedCall/sequential_4/transformer_block_2/add_1", "StatefulPartitionedCall/sequential_4/transformer_block_2/layer_normalization_5/batchnorm/mul"], "attr": {"T": {"type": "DT_FLOAT"}}}, {"name": "StatefulPartitionedCall/sequential_4/transformer_block_2/layer_normalization_5/batchnorm/sub", "op": "Sub", "input": ["StatefulPartitionedCall/sequential_4/transformer_block_2/layer_normalization_5/batchnorm/ReadVariableOp", "StatefulPartitionedCall/sequential_4/transformer_block_2/layer_normalization_5/batchnorm/mul_2"], "attr": {"T": {"type": "DT_FLOAT"}}}, {"name": "StatefulPartitionedCall/sequential_4/transformer_block_2/layer_normalization_5/batchnorm/add_1", "op": "AddV2", "input": ["StatefulPartitionedCall/sequential_4/transformer_block_2/layer_normalization_5/batchnorm/mul_1", "StatefulPartitionedCall/sequential_4/transformer_block_2/layer_normalization_5/batchnorm/sub"], "attr": {"T": {"type": "DT_FLOAT"}}}, {"name": "Identity", "op": "Identity", "input": ["StatefulPartitionedCall/sequential_4/transformer_block_2/layer_normalization_5/batchnorm/add_1"], "attr": {"T": {"type": "DT_FLOAT"}}}], "library": {}, "versions": {"producer": 561}}, "weightsManifest": [{"paths": ["group1-shard1of1.bin"], "weights": [{"name": "StatefulPartitionedCall/sequential_4/transformer_block_2/layer_normalization_5/batchnorm/ReadVariableOp", "shape": [64], "dtype": "float32"}, {"name": "StatefulPartitionedCall/sequential_4/transformer_block_2/sequential_3/dense_20/Tensordot/Const", "shape": [1], "dtype": "int32"}, {"name": "StatefulPartitionedCall/sequential_4/transformer_block_2/sequential_3/dense_20/Tensordot/axes", "shape": [1], "dtype": "int32"}, {"name": "StatefulPartitionedCall/sequential_4/transformer_block_2/sequential_3/dense_20/Tensordot/GatherV2_1/axis", "shape": [], "dtype": "int32"}, {"name": "StatefulPartitionedCall/sequential_4/transformer_block_2/sequential_3/dense_20/Tensordot/Const_1", "shape": [1], "dtype": "int32"}, {"name": "StatefulPartitionedCall/sequential_4/transformer_block_2/sequential_3/dense_20/Tensordot/ReadVariableOp", "shape": [64, 64], "dtype": "float32"}, {"name": "StatefulPartitionedCall/sequential_4/transformer_block_2/sequential_3/dense_19/Tensordot/Const", "shape": [1], "dtype": "int32"}, {"name": "StatefulPartitionedCall/sequential_4/transformer_block_2/sequential_3/dense_19/Tensordot/axes", "shape": [1], "dtype": "int32"}, {"name": "StatefulPartitionedCall/sequential_4/transformer_block_2/sequential_3/dense_19/Tensordot/GatherV2_1/axis", "shape": [], "dtype": "int32"}, {"name": "StatefulPartitionedCall/sequential_4/transformer_block_2/sequential_3/dense_19/Tensordot/Const_1", "shape": [1], "dtype": "int32"}, {"name": "StatefulPartitionedCall/sequential_4/transformer_block_2/sequential_3/dense_19/Tensordot/ReadVariableOp", "shape": [64, 64], "dtype": "float32"}, {"name": "StatefulPartitionedCall/sequential_4/transformer_block_2/layer_normalization_4/batchnorm/ReadVariableOp", "shape": [64], "dtype": "float32"}, {"name": "StatefulPartitionedCall/sequential_4/transformer_block_2/dense_18/Tensordot/Const", "shape": [1], "dtype": "int32"}, {"name": "StatefulPartitionedCall/sequential_4/transformer_block_2/dense_18/Tensordot/axes", "shape": [1], "dtype": "int32"}, {"name": "StatefulPartitionedCall/sequential_4/transformer_block_2/dense_18/Tensordot/GatherV2_1/axis", "shape": [], "dtype": "int32"}, {"name": "StatefulPartitionedCall/sequential_4/transformer_block_2/dense_18/Tensordot/Const_1", "shape": [1], "dtype": "int32"}, {"name": "StatefulPartitionedCall/sequential_4/transformer_block_2/dense_18/Tensordot/ReadVariableOp", "shape": [512, 64], "dtype": "float32"}, {"name": "StatefulPartitionedCall/sequential_4/transformer_block_2/dense_15/Tensordot/free", "shape": [2], "dtype": "int32"}, {"name": "StatefulPartitionedCall/sequential_4/transformer_block_2/dense_15/Tensordot/GatherV2/axis", "shape": [], "dtype": "int32"}, {"name": "StatefulPartitionedCall/sequential_4/transformer_block_2/dense_15/Tensordot/Const", "shape": [1], "dtype": "int32"}, {"name": "StatefulPartitionedCall/sequential_4/transformer_block_2/dense_15/Tensordot/axes", "shape": [1], "dtype": "int32"}, {"name": "StatefulPartitionedCall/sequential_4/transformer_block_2/dense_15/Tensordot/GatherV2_1/axis", "shape": [], "dtype": "int32"}, {"name": "StatefulPartitionedCall/sequential_4/transformer_block_2/dense_15/Tensordot/Const_1", "shape": [1], "dtype": "int32"}, {"name": "StatefulPartitionedCall/sequential_4/transformer_block_2/dense_15/Tensordot/ReadVariableOp", "shape": [64, 512], "dtype": "float32"}, {"name": "StatefulPartitionedCall/sequential_4/transformer_block_2/Reshape/shape", "shape": [4], "dtype": "int32"}, {"name": "StatefulPartitionedCall/sequential_4/transformer_block_2/transpose/perm", "shape": [4], "dtype": "int32"}, {"name": "StatefulPartitionedCall/sequential_4/transformer_block_2/dense_17/Tensordot/free", "shape": [2], "dtype": "int32"}, {"name": "StatefulPartitionedCall/sequential_4/transformer_block_2/dense_17/Tensordot/GatherV2/axis", "shape": [], "dtype": "int32"}, {"name": "StatefulPartitionedCall/sequential_4/transformer_block_2/dense_17/Tensordot/Const", "shape": [1], "dtype": "int32"}, {"name": "StatefulPartitionedCall/sequential_4/transformer_block_2/dense_17/Tensordot/axes", "shape": [1], "dtype": "int32"}, {"name": "StatefulPartitionedCall/sequential_4/transformer_block_2/dense_17/Tensordot/GatherV2_1/axis", "shape": [], "dtype": "int32"}, {"name": "StatefulPartitionedCall/sequential_4/transformer_block_2/dense_17/Tensordot/Const_1", "shape": [1], "dtype": "int32"}, {"name": "StatefulPartitionedCall/sequential_4/transformer_block_2/dense_17/Tensordot/ReadVariableOp", "shape": [64, 512], "dtype": "float32"}, {"name": "StatefulPartitionedCall/sequential_4/transformer_block_2/Reshape_2/shape", "shape": [4], "dtype": "int32"}, {"name": "StatefulPartitionedCall/sequential_4/transformer_block_2/transpose_1/perm", "shape": [4], "dtype": "int32"}, {"name": "ConstantFolding/StatefulPartitionedCall/sequential_4/transformer_block_2/truediv_recip", "shape": [], "dtype": "float32"}, {"name": "StatefulPartitionedCall/sequential_4/transformer_block_2/dense_16/Tensordot/free", "shape": [2], "dtype": "int32"}, {"name": "StatefulPartitionedCall/sequential_4/transformer_block_2/dense_16/Tensordot/GatherV2/axis", "shape": [], "dtype": "int32"}, {"name": "StatefulPartitionedCall/sequential_4/transformer_block_2/dense_16/Tensordot/Const", "shape": [1], "dtype": "int32"}, {"name": "StatefulPartitionedCall/sequential_4/transformer_block_1/layer_normalization_3/batchnorm/ReadVariableOp", "shape": [64], "dtype": "float32"}, {"name": "StatefulPartitionedCall/sequential_4/transformer_block_1/sequential_2/dense_14/Tensordot/Const", "shape": [1], "dtype": "int32"}, {"name": "StatefulPartitionedCall/sequential_4/transformer_block_1/sequential_2/dense_14/Tensordot/axes", "shape": [1], "dtype": "int32"}, {"name": "StatefulPartitionedCall/sequential_4/transformer_block_1/sequential_2/dense_14/Tensordot/GatherV2_1/axis", "shape": [], "dtype": "int32"}, {"name": "StatefulPartitionedCall/sequential_4/transformer_block_1/sequential_2/dense_14/Tensordot/Const_1", "shape": [1], "dtype": "int32"}, {"name": "StatefulPartitionedCall/sequential_4/transformer_block_1/sequential_2/dense_14/Tensordot/ReadVariableOp", "shape": [64, 64], "dtype": "float32"}, {"name": "StatefulPartitionedCall/sequential_4/transformer_block_1/sequential_2/dense_13/Tensordot/Const", "shape": [1], "dtype": "int32"}, {"name": "StatefulPartitionedCall/sequential_4/transformer_block_1/sequential_2/dense_13/Tensordot/axes", "shape": [1], "dtype": "int32"}, {"name": "StatefulPartitionedCall/sequential_4/transformer_block_1/sequential_2/dense_13/Tensordot/GatherV2_1/axis", "shape": [], "dtype": "int32"}, {"name": "StatefulPartitionedCall/sequential_4/transformer_block_1/sequential_2/dense_13/Tensordot/Const_1", "shape": [1], "dtype": "int32"}, {"name": "StatefulPartitionedCall/sequential_4/transformer_block_1/sequential_2/dense_13/Tensordot/ReadVariableOp", "shape": [64, 64], "dtype": "float32"}, {"name": "StatefulPartitionedCall/sequential_4/transformer_block_1/layer_normalization_2/batchnorm/ReadVariableOp", "shape": [64], "dtype": "float32"}, {"name": "StatefulPartitionedCall/sequential_4/transformer_block_1/dense_12/Tensordot/Const", "shape": [1], "dtype": "int32"}, {"name": "StatefulPartitionedCall/sequential_4/transformer_block_1/dense_12/Tensordot/axes", "shape": [1], "dtype": "int32"}, {"name": "StatefulPartitionedCall/sequential_4/transformer_block_1/dense_12/Tensordot/GatherV2_1/axis", "shape": [], "dtype": "int32"}, {"name": "StatefulPartitionedCall/sequential_4/transformer_block_1/dense_12/Tensordot/Const_1", "shape": [1], "dtype": "int32"}, {"name": "StatefulPartitionedCall/sequential_4/transformer_block_1/dense_12/Tensordot/ReadVariableOp", "shape": [512, 64], "dtype": "float32"}, {"name": "StatefulPartitionedCall/sequential_4/transformer_block_1/dense_9/Tensordot/free", "shape": [2], "dtype": "int32"}, {"name": "StatefulPartitionedCall/sequential_4/transformer_block_1/dense_9/Tensordot/GatherV2/axis", "shape": [], "dtype": "int32"}, {"name": "StatefulPartitionedCall/sequential_4/transformer_block_1/dense_9/Tensordot/Const", "shape": [1], "dtype": "int32"}, {"name": "StatefulPartitionedCall/sequential_4/transformer_block_1/dense_9/Tensordot/axes", "shape": [1], "dtype": "int32"}, {"name": "StatefulPartitionedCall/sequential_4/transformer_block_1/dense_9/Tensordot/GatherV2_1/axis", "shape": [], "dtype": "int32"}, {"name": "StatefulPartitionedCall/sequential_4/transformer_block_1/dense_9/Tensordot/Const_1", "shape": [1], "dtype": "int32"}, {"name": "StatefulPartitionedCall/sequential_4/transformer_block_1/dense_9/Tensordot/ReadVariableOp", "shape": [64, 512], "dtype": "float32"}, {"name": "StatefulPartitionedCall/sequential_4/transformer_block_1/Reshape/shape", "shape": [4], "dtype": "int32"}, {"name": "StatefulPartitionedCall/sequential_4/transformer_block_1/transpose/perm", "shape": [4], "dtype": "int32"}, {"name": "StatefulPartitionedCall/sequential_4/transformer_block_1/dense_11/Tensordot/free", "shape": [2], "dtype": "int32"}, {"name": "StatefulPartitionedCall/sequential_4/transformer_block_1/dense_11/Tensordot/GatherV2/axis", "shape": [], "dtype": "int32"}, {"name": "StatefulPartitionedCall/sequential_4/transformer_block_1/dense_11/Tensordot/Const", "shape": [1], "dtype": "int32"}, {"name": "StatefulPartitionedCall/sequential_4/transformer_block_1/dense_11/Tensordot/axes", "shape": [1], "dtype": "int32"}, {"name": "StatefulPartitionedCall/sequential_4/transformer_block_1/dense_11/Tensordot/GatherV2_1/axis", "shape": [], "dtype": "int32"}, {"name": "StatefulPartitionedCall/sequential_4/transformer_block_1/dense_11/Tensordot/Const_1", "shape": [1], "dtype": "int32"}, {"name": "StatefulPartitionedCall/sequential_4/transformer_block_1/dense_11/Tensordot/ReadVariableOp", "shape": [64, 512], "dtype": "float32"}, {"name": "StatefulPartitionedCall/sequential_4/transformer_block_1/Reshape_2/shape", "shape": [4], "dtype": "int32"}, {"name": "StatefulPartitionedCall/sequential_4/transformer_block_1/transpose_1/perm", "shape": [4], "dtype": "int32"}, {"name": "ConstantFolding/StatefulPartitionedCall/sequential_4/transformer_block_1/truediv_recip", "shape": [], "dtype": "float32"}, {"name": "StatefulPartitionedCall/sequential_4/transformer_block_1/dense_10/Tensordot/free", "shape": [2], "dtype": "int32"}, {"name": "StatefulPartitionedCall/sequential_4/transformer_block_1/dense_10/Tensordot/GatherV2/axis", "shape": [], "dtype": "int32"}, {"name": "StatefulPartitionedCall/sequential_4/transformer_block_1/dense_10/Tensordot/Const", "shape": [1], "dtype": "int32"}, {"name": "StatefulPartitionedCall/sequential_4/transformer_block/layer_normalization_1/batchnorm/ReadVariableOp", "shape": [64], "dtype": "float32"}, {"name": "StatefulPartitionedCall/sequential_4/transformer_block/sequential_1/dense_8/Tensordot/Const", "shape": [1], "dtype": "int32"}, {"name": "StatefulPartitionedCall/sequential_4/transformer_block/sequential_1/dense_8/Tensordot/axes", "shape": [1], "dtype": "int32"}, {"name": "StatefulPartitionedCall/sequential_4/transformer_block/sequential_1/dense_8/Tensordot/GatherV2_1/axis", "shape": [], "dtype": "int32"}, {"name": "StatefulPartitionedCall/sequential_4/transformer_block/sequential_1/dense_8/Tensordot/Const_1", "shape": [1], "dtype": "int32"}, {"name": "StatefulPartitionedCall/sequential_4/transformer_block/sequential_1/dense_8/Tensordot/ReadVariableOp", "shape": [64, 64], "dtype": "float32"}, {"name": "StatefulPartitionedCall/sequential_4/transformer_block/sequential_1/dense_7/Tensordot/Const", "shape": [1], "dtype": "int32"}, {"name": "StatefulPartitionedCall/sequential_4/transformer_block/sequential_1/dense_7/Tensordot/axes", "shape": [1], "dtype": "int32"}, {"name": "StatefulPartitionedCall/sequential_4/transformer_block/sequential_1/dense_7/Tensordot/GatherV2_1/axis", "shape": [], "dtype": "int32"}, {"name": "StatefulPartitionedCall/sequential_4/transformer_block/sequential_1/dense_7/Tensordot/Const_1", "shape": [1], "dtype": "int32"}, {"name": "StatefulPartitionedCall/sequential_4/transformer_block/sequential_1/dense_7/Tensordot/ReadVariableOp", "shape": [64, 64], "dtype": "float32"}, {"name": "StatefulPartitionedCall/sequential_4/transformer_block/layer_normalization/batchnorm/ReadVariableOp", "shape": [64], "dtype": "float32"}, {"name": "StatefulPartitionedCall/sequential_4/transformer_block/dense_6/Tensordot/Const", "shape": [1], "dtype": "int32"}, {"name": "StatefulPartitionedCall/sequential_4/transformer_block/dense_6/Tensordot/axes", "shape": [1], "dtype": "int32"}, {"name": "StatefulPartitionedCall/sequential_4/transformer_block/dense_6/Tensordot/GatherV2_1/axis", "shape": [], "dtype": "int32"}, {"name": "StatefulPartitionedCall/sequential_4/transformer_block/dense_6/Tensordot/Const_1", "shape": [1], "dtype": "int32"}, {"name": "StatefulPartitionedCall/sequential_4/transformer_block/dense_6/Tensordot/ReadVariableOp", "shape": [512, 64], "dtype": "float32"}, {"name": "StatefulPartitionedCall/sequential_4/transformer_block/dense_3/Tensordot/free", "shape": [2], "dtype": "int32"}, {"name": "StatefulPartitionedCall/sequential_4/transformer_block/dense_3/Tensordot/GatherV2/axis", "shape": [], "dtype": "int32"}, {"name": "StatefulPartitionedCall/sequential_4/transformer_block/dense_3/Tensordot/Const", "shape": [1], "dtype": "int32"}, {"name": "StatefulPartitionedCall/sequential_4/transformer_block/dense_3/Tensordot/axes", "shape": [1], "dtype": "int32"}, {"name": "StatefulPartitionedCall/sequential_4/transformer_block/dense_3/Tensordot/GatherV2_1/axis", "shape": [], "dtype": "int32"}, {"name": "StatefulPartitionedCall/sequential_4/transformer_block/dense_3/Tensordot/Const_1", "shape": [1], "dtype": "int32"}, {"name": "StatefulPartitionedCall/sequential_4/transformer_block/dense_3/Tensordot/ReadVariableOp", "shape": [64, 512], "dtype": "float32"}, {"name": "StatefulPartitionedCall/sequential_4/transformer_block/Reshape/shape", "shape": [4], "dtype": "int32"}, {"name": "StatefulPartitionedCall/sequential_4/transformer_block/transpose/perm", "shape": [4], "dtype": "int32"}, {"name": "StatefulPartitionedCall/sequential_4/transformer_block/dense_5/Tensordot/free", "shape": [2], "dtype": "int32"}, {"name": "StatefulPartitionedCall/sequential_4/transformer_block/dense_5/Tensordot/GatherV2/axis", "shape": [], "dtype": "int32"}, {"name": "StatefulPartitionedCall/sequential_4/transformer_block/dense_5/Tensordot/Const", "shape": [1], "dtype": "int32"}, {"name": "StatefulPartitionedCall/sequential_4/transformer_block/dense_5/Tensordot/axes", "shape": [1], "dtype": "int32"}, {"name": "StatefulPartitionedCall/sequential_4/transformer_block/dense_5/Tensordot/GatherV2_1/axis", "shape": [], "dtype": "int32"}, {"name": "StatefulPartitionedCall/sequential_4/transformer_block/dense_5/Tensordot/Const_1", "shape": [1], "dtype": "int32"}, {"name": "StatefulPartitionedCall/sequential_4/transformer_block/dense_5/Tensordot/ReadVariableOp", "shape": [64, 512], "dtype": "float32"}, {"name": "StatefulPartitionedCall/sequential_4/transformer_block/Reshape_2/shape", "shape": [4], "dtype": "int32"}, {"name": "StatefulPartitionedCall/sequential_4/transformer_block/transpose_1/perm", "shape": [4], "dtype": "int32"}, {"name": "ConstantFolding/StatefulPartitionedCall/sequential_4/transformer_block/truediv_recip", "shape": [], "dtype": "float32"}, {"name": "StatefulPartitionedCall/sequential_4/transformer_block/dense_4/Tensordot/free", "shape": [2], "dtype": "int32"}, {"name": "StatefulPartitionedCall/sequential_4/transformer_block/dense_4/Tensordot/GatherV2/axis", "shape": [], "dtype": "int32"}, {"name": "StatefulPartitionedCall/sequential_4/transformer_block/dense_4/Tensordot/Const", "shape": [1], "dtype": "int32"}, {"name": "unknown_0", "shape": [255, 64], "dtype": "float32"}, {"name": "StatefulPartitionedCall/sequential_4/token_and_position_embedding/embedding/embedding_lookup/axis", "shape": [], "dtype": "int32"}, {"name": "unknown", "shape": [256, 64], "dtype": "float32"}, {"name": "StatefulPartitionedCall/sequential_4/token_and_position_embedding/range/start", "shape": [], "dtype": "int32"}, {"name": "StatefulPartitionedCall/sequential_4/token_and_position_embedding/strided_slice/stack", "shape": [1], "dtype": "int32"}, {"name": "StatefulPartitionedCall/sequential_4/token_and_position_embedding/strided_slice/stack_1", "shape": [1], "dtype": "int32"}, {"name": "StatefulPartitionedCall/sequential_4/token_and_position_embedding/strided_slice/stack_2", "shape": [1], "dtype": "int32"}, {"name": "StatefulPartitionedCall/sequential_4/token_and_position_embedding/range/delta", "shape": [], "dtype": "int32"}, {"name": "StatefulPartitionedCall/sequential_4/token_and_position_embedding/embedding_1/embedding_lookup/axis", "shape": [], "dtype": "int32"}, {"name": "StatefulPartitionedCall/sequential_4/transformer_block/dense_4/Tensordot/axes", "shape": [1], "dtype": "int32"}, {"name": "StatefulPartitionedCall/sequential_4/transformer_block/dense_4/Tensordot/GatherV2_1/axis", "shape": [], "dtype": "int32"}, {"name": "StatefulPartitionedCall/sequential_4/transformer_block/dense_4/Tensordot/Const_1", "shape": [1], "dtype": "int32"}, {"name": "StatefulPartitionedCall/sequential_4/transformer_block/dense_4/Tensordot/ReadVariableOp", "shape": [64, 512], "dtype": "float32"}, {"name": "StatefulPartitionedCall/sequential_4/transformer_block/Reshape_1/shape", "shape": [4], "dtype": "int32"}, {"name": "StatefulPartitionedCall/sequential_4/transformer_block/transpose_2/perm", "shape": [4], "dtype": "int32"}, {"name": "StatefulPartitionedCall/sequential_4/transformer_block/transpose_3/perm", "shape": [4], "dtype": "int32"}, {"name": "StatefulPartitionedCall/sequential_4/transformer_block/Reshape_3/shape", "shape": [3], "dtype": "int32"}, {"name": "StatefulPartitionedCall/sequential_4/transformer_block/dense_6/Tensordot/free", "shape": [2], "dtype": "int32"}, {"name": "StatefulPartitionedCall/sequential_4/transformer_block/dense_6/Tensordot/GatherV2/axis", "shape": [], "dtype": "int32"}, {"name": "StatefulPartitionedCall/sequential_4/transformer_block/dense_6/Tensordot/Const_2", "shape": [1], "dtype": "int32"}, {"name": "StatefulPartitionedCall/sequential_4/transformer_block/dense_6/Tensordot/concat_1/axis", "shape": [], "dtype": "int32"}, {"name": "StatefulPartitionedCall/sequential_4/transformer_block/layer_normalization/moments/mean/reduction_indices", "shape": [1], "dtype": "int32"}, {"name": "StatefulPartitionedCall/sequential_4/transformer_block/layer_normalization/moments/variance/reduction_indices", "shape": [1], "dtype": "int32"}, {"name": "StatefulPartitionedCall/sequential_4/transformer_block/layer_normalization/batchnorm/add/y", "shape": [], "dtype": "float32"}, {"name": "StatefulPartitionedCall/sequential_4/transformer_block/layer_normalization/batchnorm/mul/ReadVariableOp", "shape": [64], "dtype": "float32"}, {"name": "StatefulPartitionedCall/sequential_4/transformer_block/sequential_1/dense_7/Tensordot/free", "shape": [2], "dtype": "int32"}, {"name": "StatefulPartitionedCall/sequential_4/transformer_block/sequential_1/dense_7/Tensordot/GatherV2/axis", "shape": [], "dtype": "int32"}, {"name": "StatefulPartitionedCall/sequential_4/transformer_block/sequential_1/dense_7/Tensordot/Const_2", "shape": [1], "dtype": "int32"}, {"name": "StatefulPartitionedCall/sequential_4/transformer_block/sequential_1/dense_7/Tensordot/concat_1/axis", "shape": [], "dtype": "int32"}, {"name": "StatefulPartitionedCall/sequential_4/transformer_block/sequential_1/dense_7/BiasAdd/ReadVariableOp", "shape": [64], "dtype": "float32"}, {"name": "StatefulPartitionedCall/sequential_4/transformer_block/sequential_1/dense_8/Tensordot/free", "shape": [2], "dtype": "int32"}, {"name": "StatefulPartitionedCall/sequential_4/transformer_block/sequential_1/dense_8/Tensordot/GatherV2/axis", "shape": [], "dtype": "int32"}, {"name": "StatefulPartitionedCall/sequential_4/transformer_block/sequential_1/dense_8/Tensordot/Const_2", "shape": [1], "dtype": "int32"}, {"name": "StatefulPartitionedCall/sequential_4/transformer_block/sequential_1/dense_8/Tensordot/concat_1/axis", "shape": [], "dtype": "int32"}, {"name": "StatefulPartitionedCall/sequential_4/transformer_block/sequential_1/dense_8/BiasAdd/ReadVariableOp", "shape": [64], "dtype": "float32"}, {"name": "StatefulPartitionedCall/sequential_4/transformer_block/layer_normalization_1/moments/mean/reduction_indices", "shape": [1], "dtype": "int32"}, {"name": "StatefulPartitionedCall/sequential_4/transformer_block/layer_normalization_1/moments/variance/reduction_indices", "shape": [1], "dtype": "int32"}, {"name": "StatefulPartitionedCall/sequential_4/transformer_block/layer_normalization_1/batchnorm/add/y", "shape": [], "dtype": "float32"}, {"name": "StatefulPartitionedCall/sequential_4/transformer_block/layer_normalization_1/batchnorm/mul/ReadVariableOp", "shape": [64], "dtype": "float32"}, {"name": "StatefulPartitionedCall/sequential_4/transformer_block_1/dense_10/Tensordot/axes", "shape": [1], "dtype": "int32"}, {"name": "StatefulPartitionedCall/sequential_4/transformer_block_1/dense_10/Tensordot/GatherV2_1/axis", "shape": [], "dtype": "int32"}, {"name": "StatefulPartitionedCall/sequential_4/transformer_block_1/dense_10/Tensordot/Const_1", "shape": [1], "dtype": "int32"}, {"name": "StatefulPartitionedCall/sequential_4/transformer_block_1/dense_10/Tensordot/ReadVariableOp", "shape": [64, 512], "dtype": "float32"}, {"name": "StatefulPartitionedCall/sequential_4/transformer_block_1/Reshape_1/shape", "shape": [4], "dtype": "int32"}, {"name": "StatefulPartitionedCall/sequential_4/transformer_block_1/transpose_2/perm", "shape": [4], "dtype": "int32"}, {"name": "StatefulPartitionedCall/sequential_4/transformer_block_1/transpose_3/perm", "shape": [4], "dtype": "int32"}, {"name": "StatefulPartitionedCall/sequential_4/transformer_block_1/Reshape_3/shape", "shape": [3], "dtype": "int32"}, {"name": "StatefulPartitionedCall/sequential_4/transformer_block_1/dense_12/Tensordot/free", "shape": [2], "dtype": "int32"}, {"name": "StatefulPartitionedCall/sequential_4/transformer_block_1/dense_12/Tensordot/GatherV2/axis", "shape": [], "dtype": "int32"}, {"name": "StatefulPartitionedCall/sequential_4/transformer_block_1/dense_12/Tensordot/Const_2", "shape": [1], "dtype": "int32"}, {"name": "StatefulPartitionedCall/sequential_4/transformer_block_1/dense_12/Tensordot/concat_1/axis", "shape": [], "dtype": "int32"}, {"name": "StatefulPartitionedCall/sequential_4/transformer_block_1/layer_normalization_2/moments/mean/reduction_indices", "shape": [1], "dtype": "int32"}, {"name": "StatefulPartitionedCall/sequential_4/transformer_block_1/layer_normalization_2/moments/variance/reduction_indices", "shape": [1], "dtype": "int32"}, {"name": "StatefulPartitionedCall/sequential_4/transformer_block_1/layer_normalization_2/batchnorm/add/y", "shape": [], "dtype": "float32"}, {"name": "StatefulPartitionedCall/sequential_4/transformer_block_1/layer_normalization_2/batchnorm/mul/ReadVariableOp", "shape": [64], "dtype": "float32"}, {"name": "StatefulPartitionedCall/sequential_4/transformer_block_1/sequential_2/dense_13/Tensordot/free", "shape": [2], "dtype": "int32"}, {"name": "StatefulPartitionedCall/sequential_4/transformer_block_1/sequential_2/dense_13/Tensordot/GatherV2/axis", "shape": [], "dtype": "int32"}, {"name": "StatefulPartitionedCall/sequential_4/transformer_block_1/sequential_2/dense_13/Tensordot/Const_2", "shape": [1], "dtype": "int32"}, {"name": "StatefulPartitionedCall/sequential_4/transformer_block_1/sequential_2/dense_13/Tensordot/concat_1/axis", "shape": [], "dtype": "int32"}, {"name": "StatefulPartitionedCall/sequential_4/transformer_block_1/sequential_2/dense_13/BiasAdd/ReadVariableOp", "shape": [64], "dtype": "float32"}, {"name": "StatefulPartitionedCall/sequential_4/transformer_block_1/sequential_2/dense_14/Tensordot/free", "shape": [2], "dtype": "int32"}, {"name": "StatefulPartitionedCall/sequential_4/transformer_block_1/sequential_2/dense_14/Tensordot/GatherV2/axis", "shape": [], "dtype": "int32"}, {"name": "StatefulPartitionedCall/sequential_4/transformer_block_1/sequential_2/dense_14/Tensordot/Const_2", "shape": [1], "dtype": "int32"}, {"name": "StatefulPartitionedCall/sequential_4/transformer_block_1/sequential_2/dense_14/Tensordot/concat_1/axis", "shape": [], "dtype": "int32"}, {"name": "StatefulPartitionedCall/sequential_4/transformer_block_1/sequential_2/dense_14/BiasAdd/ReadVariableOp", "shape": [64], "dtype": "float32"}, {"name": "StatefulPartitionedCall/sequential_4/transformer_block_1/layer_normalization_3/moments/mean/reduction_indices", "shape": [1], "dtype": "int32"}, {"name": "StatefulPartitionedCall/sequential_4/transformer_block_1/layer_normalization_3/moments/variance/reduction_indices", "shape": [1], "dtype": "int32"}, {"name": "StatefulPartitionedCall/sequential_4/transformer_block_1/layer_normalization_3/batchnorm/add/y", "shape": [], "dtype": "float32"}, {"name": "StatefulPartitionedCall/sequential_4/transformer_block_1/layer_normalization_3/batchnorm/mul/ReadVariableOp", "shape": [64], "dtype": "float32"}, {"name": "StatefulPartitionedCall/sequential_4/transformer_block_2/dense_16/Tensordot/axes", "shape": [1], "dtype": "int32"}, {"name": "StatefulPartitionedCall/sequential_4/transformer_block_2/dense_16/Tensordot/GatherV2_1/axis", "shape": [], "dtype": "int32"}, {"name": "StatefulPartitionedCall/sequential_4/transformer_block_2/dense_16/Tensordot/Const_1", "shape": [1], "dtype": "int32"}, {"name": "StatefulPartitionedCall/sequential_4/transformer_block_2/dense_16/Tensordot/ReadVariableOp", "shape": [64, 512], "dtype": "float32"}, {"name": "StatefulPartitionedCall/sequential_4/transformer_block_2/Reshape_1/shape", "shape": [4], "dtype": "int32"}, {"name": "StatefulPartitionedCall/sequential_4/transformer_block_2/transpose_2/perm", "shape": [4], "dtype": "int32"}, {"name": "StatefulPartitionedCall/sequential_4/transformer_block_2/transpose_3/perm", "shape": [4], "dtype": "int32"}, {"name": "StatefulPartitionedCall/sequential_4/transformer_block_2/Reshape_3/shape", "shape": [3], "dtype": "int32"}, {"name": "StatefulPartitionedCall/sequential_4/transformer_block_2/dense_18/Tensordot/free", "shape": [2], "dtype": "int32"}, {"name": "StatefulPartitionedCall/sequential_4/transformer_block_2/dense_18/Tensordot/GatherV2/axis", "shape": [], "dtype": "int32"}, {"name": "StatefulPartitionedCall/sequential_4/transformer_block_2/dense_18/Tensordot/Const_2", "shape": [1], "dtype": "int32"}, {"name": "StatefulPartitionedCall/sequential_4/transformer_block_2/dense_18/Tensordot/concat_1/axis", "shape": [], "dtype": "int32"}, {"name": "StatefulPartitionedCall/sequential_4/transformer_block_2/layer_normalization_4/moments/mean/reduction_indices", "shape": [1], "dtype": "int32"}, {"name": "StatefulPartitionedCall/sequential_4/transformer_block_2/layer_normalization_4/moments/variance/reduction_indices", "shape": [1], "dtype": "int32"}, {"name": "StatefulPartitionedCall/sequential_4/transformer_block_2/layer_normalization_4/batchnorm/add/y", "shape": [], "dtype": "float32"}, {"name": "StatefulPartitionedCall/sequential_4/transformer_block_2/layer_normalization_4/batchnorm/mul/ReadVariableOp", "shape": [64], "dtype": "float32"}, {"name": "StatefulPartitionedCall/sequential_4/transformer_block_2/sequential_3/dense_19/Tensordot/free", "shape": [2], "dtype": "int32"}, {"name": "StatefulPartitionedCall/sequential_4/transformer_block_2/sequential_3/dense_19/Tensordot/GatherV2/axis", "shape": [], "dtype": "int32"}, {"name": "StatefulPartitionedCall/sequential_4/transformer_block_2/sequential_3/dense_19/Tensordot/Const_2", "shape": [1], "dtype": "int32"}, {"name": "StatefulPartitionedCall/sequential_4/transformer_block_2/sequential_3/dense_19/Tensordot/concat_1/axis", "shape": [], "dtype": "int32"}, {"name": "StatefulPartitionedCall/sequential_4/transformer_block_2/sequential_3/dense_19/BiasAdd/ReadVariableOp", "shape": [64], "dtype": "float32"}, {"name": "StatefulPartitionedCall/sequential_4/transformer_block_2/sequential_3/dense_20/Tensordot/free", "shape": [2], "dtype": "int32"}, {"name": "StatefulPartitionedCall/sequential_4/transformer_block_2/sequential_3/dense_20/Tensordot/GatherV2/axis", "shape": [], "dtype": "int32"}, {"name": "StatefulPartitionedCall/sequential_4/transformer_block_2/sequential_3/dense_20/Tensordot/Const_2", "shape": [1], "dtype": "int32"}, {"name": "StatefulPartitionedCall/sequential_4/transformer_block_2/sequential_3/dense_20/Tensordot/concat_1/axis", "shape": [], "dtype": "int32"}, {"name": "StatefulPartitionedCall/sequential_4/transformer_block_2/sequential_3/dense_20/BiasAdd/ReadVariableOp", "shape": [64], "dtype": "float32"}, {"name": "StatefulPartitionedCall/sequential_4/transformer_block_2/layer_normalization_5/moments/mean/reduction_indices", "shape": [1], "dtype": "int32"}, {"name": "StatefulPartitionedCall/sequential_4/transformer_block_2/layer_normalization_5/moments/variance/reduction_indices", "shape": [1], "dtype": "int32"}, {"name": "StatefulPartitionedCall/sequential_4/transformer_block_2/layer_normalization_5/batchnorm/add/y", "shape": [], "dtype": "float32"}, {"name": "StatefulPartitionedCall/sequential_4/transformer_block_2/layer_normalization_5/batchnorm/mul/ReadVariableOp", "shape": [64], "dtype": "float32"}]}]}